prototype_1/centralized/models/centralized-model.pth (torch, 94020 bytes, 9 tensors)

fc1.weight f4 [128, 41]
0.04945531 -0.023361046 0.015104298 0.10932657 0.0070064995 -0.1220304 0.035497718 0.130197
0.07093357 -0.09903057 0.05788516 -0.018177347 0.08061987 0.036631826 0.03685928 -0.03349601
-0.04111378 0.07621623 0.09415874 0.012602225 0.12084379 -0.11072602 0.0906869 0.10022476
-0.09229575 0.09605276 -0.08730212 0.09673052 -0.07594681 -0.08982091 0.14235528 -0.040317003
-0.06042936 -0.06176504 0.014124603 -0.084690884 -0.08855059 0.05732795 -0.13702415 -0.12969567
-0.112098046 -0.062416475 0.10927683 0.13102575 -0.0469522 -0.097885616 0.13800675 -0.1392351
-0.08882864 -0.08346633 0.11084385 0.05868917 0.1552631 0.119750775 -0.070296794 -0.14054537
0.12042208 0.0019572093 0.05697201 -0.12852725 -0.12180757 -0.0006277025 0.10688218 -0.12819278
0.06484482 -0.12928015 -0.14233902 -0.13291347 0.03331681 0.04177211 0.14567305 -0.1486448
-0.042048514 -0.08379197 0.028203 0.024697222 0.14317077 -0.10086101 0.033377856 0.05005139
-0.047791433 -0.020478599 -0.05526862 0.05107339 -0.12914027 -0.012908931 -0.088440135 0.1269249
0.11441915 -0.08485691 -0.18557635 -0.14372085 -0.1352802 0.046023056 -0.090404965 0.11480433
0.062356483 -0.115460195 0.04670149 0.04573768 0.05864267 -0.053088676 0.07893908 0.0024677988
-0.10057445 0.11534724 0.1227319 0.102851644 0.006497012 -0.13971367 0.09320978 -0.01784204
-0.0083255675 -0.0051252563 0.05380926 0.103219494 -0.012485521 -0.12845899 -0.096122816 0.09107765
0.13171594 -0.110081434 0.07716328 0.13220933 -0.041708123 0.022420166 0.031220373 -0.1040012
-0.014259085 -0.10279918 0.14709537 0.09981968 -0.16101766 0.072399355 -0.14085883 -0.05879369
0.035634544 -0.151125 0.09658207 -0.07389745 -0.0023432428 0.098877214 0.11906907 -0.06630592
-0.015389794 0.07721748 0.11159781 -0.105472594 -0.041375224 0.04000518 0.13156185 0.11863862
0.13681409 0.09219756 0.021739382 -0.015775511 0.05616194 0.103911236 0.0418371 -0.085237145
0.053060465 0.13201047 0.04405931 -0.14026368 0.08183766 -0.09117213 0.068476595 -0.007893836
0.08543054 0.021332832 0.054392617 -0.15062743 0.119309254 -0.033848267 -0.06628209 -0.030228708
-0.021711394 -0.11165281 0.05467982 0.15490794 -0.064664036 0.07745369 -0.019685833 -0.15401137
0.14944433 0.10205403 -0.0941458 0.0556931 0.14248069 0.08169656 -0.0018902438 -0.041098017
0.05492387 -0.024340339 0.09594683 0.030524058 0.09013098 0.068710335 -0.023803953 0.0197715
-0.008439424 -0.11462398 -0.0016515587 -0.10591404 0.078652605 -0.042830598 0.014757399 -0.04270727
-0.13726696 -0.027135968 0.08962445 0.14094803 0.072377115 -0.057255115 0.07552995 0.076104976
-0.0893208 -0.036372554 0.09115899 0.043648396 -0.1363956 0.04687315 0.107493244 -0.02127043
0.029923823 0.03978271 0.09750838 0.053259514 0.07987007 -0.024201581 0.06984846 -0.12657933
0.13001682 0.11163009 -0.14891581 -0.10639977 -0.035428487 -0.012054039 -0.19044094 -0.0046432014
-0.04240095 -0.056409147 0.07085861 0.11095993 -0.08997958 0.109190896 -0.05334677 -0.023498112
0.11790207 -0.1271269 0.070261694 0.049116846 0.07335389 0.06606103 0.106053285 0.06981456
00000000: a791 4a3d aa5f bfbc 0478 773c 9ce6 df3d
00000010: c796 e53b 13eb f9bd 0e66 113d 5d52 053e
00000020: 9f45 913d 8ad0 cabd fd18 6d3d a9e8 94bc
00000030: 081c a53d 410b 163d c2f9 163d 1d33 09bd
00000040: ec66 28bd 4117 9c3d 4cd6 c03d 9079 4e3c
00000050: f37c f73d 53c4 e2bd 0eba b93d a442 cd3d
00000060: 8e05 bdbd 4fb7 c43d 74cb b2bd a71a c63d
00000070: 008a 9bbd 06f4 b7bd 95c5 113e 7123 25bd
00000080: c784 77bd 57fd 7cbd e16a 673c 6a72 adbd
00000090: 035a b5bd b6d0 6a3d 0f50 0cbe f1ce 04be
000000a0: a993 e5bd 6ba8 7fbd 88cc df3d 9d2b 063e
000000b0: f350 40bd 4178 c8bd a451 0d3e a593 0ebe
000000c0: caeb b5bd 65f0 aabd 1a02 e33d 0e64 703d
000000d0: 4afd 1e3e e53f f53d c4f7 8fbd 20eb 0fbe
000000e0: da9f f63d 8644 003b 7b5b 693d a69c 03be
000000f0: 3f76 f9bd 678c 24ba 0be5 da3d f844 03be
00000100: 5ccd 843d 0462 04be 52c1 11be 781a 08be
00000110: 3577 083d 3b19 2b3d 512b 153e 5836 18be
00000120: 103b 2cbd 209b abbd fa09 e73c d451 ca3c
00000130: 5c9b 123e 3890 cebd 38b7 083d b002 4d3d
00000140: f3c0 43bd bcc2 a7bc 5961 62bd 5532 513d
00000150: 593d 04be fb7f 53bc 1a20 b5bd 9af8 013e
00000160: 9654 ea3d 76c9 adbd ba07 3ebe 8f2b 13be
00000170: e586 0abe ac82 3c3d 3d26 b9bd 881e eb3d
00000180: 8369 7f3d 6576 ecbd 104a 3f3d 6f57 3b3d
00000190: 4c33 703d 8373 59bd d0aa a13d cbba 213b
000001a0: faf9 cdbd 2c3b ec3d dd5a fb3d e2a3 d23d
000001b0: e3e4 d43b 1a11 0fbe c5e4 be3d 7829 92bc
000001c0: f667 08bc c4f1 a7bb 1967 5c3d be64 d33d
000001d0: 1290 4cbc c18a 03be 0adc c4bd eb86 ba3d
000001e0: 8be0 063e 6072 e1bd c807 9e3d e261 073e
000001f0: 23d6 2abd 7faa b73c dec1 ff3c 95fe d4bd
00000200: f09e 69bc 6088 d2bd 2ba0 163e 436e cc3d
00000210: d0e1 24be 1d46 943d 4c3d 10be a7d1 70bd
00000220: 87f5 113d 83c0 1abe d2cc c53d 8c57 97bd
00000230: 1791 19bb 2380 ca3d 7cda f33d 66cb 87bd
00000240: 7925 7cbc 3324 9e3d 658d e43d 0402 d8bd
00000250: 1179 29bd 79dc 233d 26b8 063e cef8 f23d
00000260: fe18 0c3e 13d2 bc3d ca16 b23c a53b 81bc
00000270: 100a 663d 6acf d43d 615d 2b3d d090 aebd
00000280: ee55 593d c12d 073e 8977 343d 48a1 0fbe
00000290: 819a a73d 74b8 babd 753d 8c3d 2655 01bc
000002a0: 35f6 ae3d 31c2 ae3c cbca 5e3d 143e 1abe
000002b0: 6958 f43d 7ba4 0abd e8be 87bd 32a2 f7bc
000002c0: 18dc b1bc 3aaa e4bd f2f7 5f3d 30a0 1e3e
000002d0: 946e 84bd 0aa0 9e3d 2f44 a1bc 28b5 1dbe
000002e0: ef07 193e b401 d13d 83cf c0bd 731e 643d
000002f0: 75e6 113e 8750 a73d 0fc2 f7ba 6556 28bd
00000300: daf7 603d 6465 c7bc c67f c43d 970d fa3c
00000310: 9796 b83d 01b8 8c3d 8200 c3bc d7f7 a13c
00000320: 8345 0abc fabf eabd 1d79 d8ba 76e9 d8bd
00000330: 9e14 a13d 236f 2fbd 05c9 713c d1ed 2ebd
00000340: b68f 0cbe 404c debc 068d b73d ae54 103e
00000350: 743a 943d 5784 6abd 72af 9a3d eddc 9b3d
00000360: d3ed b6bd 63fb 14bd 91b1 ba3d a9c8 323d
00000370: 4aab 0bbe 0ffe 3f3d 6b25 dc3d 533f aebc
00000380: ce22 f53c 32f3 223d 79b2 c73d a626 5a3d
00000390: eb92 a33d 6542 c6bc b60c 8f3d 039e 01be
000003a0: 2123 053e 519e e43d 637d 18be 1fe8 d9bd
000003b0: 761d 11bd 4e7e 45bc f302 43be ff25 98bb
000003c0: 9eac 2dbd 470d 67bd 521e 913d f63e e33d
000003d0: 3747 b8bd 7a9f df3d 2582 5abd 1d7f c0bc
000003e0: a476 f13d 8e2d 02be 5de5 8f3d bf2e 493d
000003f0: 903a 963d 014b 873d 7732 d93d f0fa 8e3d

fc1.bias f4 [128]
-0.061001737 -0.12904325 -0.048476156 -0.022686992 -0.103990994 -0.14297865 0.044782843 -0.016817227
0.0024576092 0.020704074 0.01266335 0.12054373 0.13657968 0.018081905 -0.020084294 0.11426935
0.0030862927 -0.0632655 -0.047051247 0.16275238 -0.08452678 -0.08225547 0.04529834 0.08588051
0.08954449 -0.025944812 -0.08467078 -0.003294239 -0.038998976 -0.030762328 -0.07258922 -0.08144438
0.09080518 -0.13587114 0.119887434 -0.070883654 0.064032026 0.09101401 -0.05014021 0.03626454
0.06339275 -0.011569365 -0.09093959 0.020466859 0.118639454 0.03900029 -0.06585818 -0.065010786
-0.13380717 -0.031372674 -0.005995438 0.107695684 -0.041183617 0.050618853 -0.17140068 -0.13241096
-0.028622631 0.097403415 -0.029866166 0.08704184 -0.022060867 -0.028477617 -0.094565056 -0.12249637
0.13324122 -0.0020767741 -0.13896807 -0.0055680764 -0.103571676 0.040417425 0.0352397 -0.11308552
0.11024769 -0.03138387 -0.12521304 0.06615884 -0.06464838 -0.12981968 0.12572819 0.07432255
0.09852521 -0.090177305 -0.008192377 0.043603294 -0.03980267 0.02986476 -0.11956881 0.13702416
-0.05784909 -0.04502892 0.080643475 -0.076501414 0.110119246 0.07060958 -0.008018645 0.1656616
-0.088036 -0.039669633 -0.01208139 0.12630272 0.034414135 0.11429521 -0.018564435 -0.061947327
0.11277698 -0.089283936 -0.10410517 0.054368548 -0.07235677 0.03655486 -0.019638954 0.04816919
-0.009392724 -0.12151379 -0.06934021 0.14481154 0.110525616 -0.05545879 0.019590996 -0.014252927
-0.029456396 -0.008256106 0.044179726 -0.15943013 -0.13758874 -0.016421981 0.063308485 0.12390249
00000000: f5dc 79bd ea23 04be ef8e 46bd 12da b9bc
00000010: 3bf9 d4bd ff68 12be 376e 373d 48c4 89bc
00000020: d70f 213b 979b a93c f179 4f3c a2df f63d
00000030: 8bdb 0b3e 8120 943c d187 a4bc 0d06 ea3d
00000040: 6643 4a3b 5891 81bd cfb8 40bd 8fa8 263e
00000050: 601c adbd 8e75 a8bd c18a 393d 1fe2 af3d
00000060: 1a63 b73d 378a d4bc e067 adbd 29e4 57bb
00000070: 64bd 1fbd 4701 fcbc a8a9 94bd 50cc a6bd
00000080: 11f8 b93d ce21 0bbe 8b87 f53d 732b 91bd
00000090: 3923 833d 8e65 ba3d d25f 4dbd 208a 143d
000000a0: 0fd4 813d 6f8d 3dbc 893e babd 1daa a73c
000000b0: 3ef9 f23d c5be 1f3d a7e0 86bd 6024 85bd
000000c0: bf04 09be a280 00bd 6175 c4bb 8e8f dc3d
000000d0: 27b0 28bd b755 4f3d a983 2fbe bd96 07be
000000e0: 027a eabc 717b c73d e4a9 f4bc fe42 b23d
000000f0: feb8 b4bc e449 e9bc 53ab c1bd 60df fabd
00000100: 6370 083e 7d1a 08bb a54d 0ebe 6974 b6bb
00000110: 631d d4bd be8c 253d 8157 103d 6299 e7bd
00000120: 8ac9 e13d 5f8c 00bd d937 00be 497e 873d
00000130: 5f66 84bd 73ef 04be e4be 003e 6c36 983d
00000140: 96c7 c93d e1ae b8bd 5239 06bc 5e99 323d
00000150: 2008 23bd f1a6 f43c 7ee0 f4bd 1050 0c3e
00000160: 2bf3 6cbd 3f70 38bd 6828 a53d c6ac 9cbd
00000170: 3386 e13d c19b 903d a360 03bc 32a3 293e
00000180: 384c b4bd a07c 22bd 06f1 45bc 8055 013e
00000190: d6f5 0c3d 9b13 ea3d 7114 98bc 7bbc 7dbd
000001a0: 9ef7 e63d 7fda b6bd 1735 d5bd 8eb1 5e3d
000001b0: c92f 94bd 8dba 153d dfe1 a0bc 0e4d 453d
000001c0: f1e3 19bc 39dc f8bd 3d02 8ebd 7a49 143e
000001d0: 415b e23d c228 63bd 4c7d a03c 1c85 69bc
000001e0: 8a4e f1bc 9e44 07bc cdf5 343d a741 23be
000001f0: 10e4 0cbe 6487 86bc e1a7 813d 97c0 fd3d

norm1.weight f4 [128]
0.98819274 0.99742514 0.9862509 0.9849388 0.9948149 0.99391127 0.99636173 0.9792462
1.0145112 1.0283184 0.9865066 1.0022768 0.9897555 1.0078914 1.0145057 1.0014986
1.0004793 0.99726516 0.99077773 0.99074733 0.99856085 0.9937658 1.0012424 0.991742
1.0032192 0.98240614 0.9942828 0.99813455 1.0021055 0.9912703 1.0027726 0.99406713
0.9852478 0.9888996 0.99363613 1.0005808 1.0257643 1.0030413 0.993657 0.98538244
0.9982198 1.0048428 1.0049093 1.0009499 0.9852778 0.99537027 1.0059022 1.0010746
1.0349454 0.98288685 0.9992218 1.0038863 0.99754435 0.99144477 1.0623943 0.9986607
0.9987018 0.9849007 0.9984204 1.0022008 0.98696494 1.0451134 1.0003996 0.9952884
0.9784541 0.99986774 0.9995524 0.9901725 0.99182105 0.9945252 1.0351977 0.9921665
1.0010294 1.0094335 1.0002736 0.9934113 0.9949802 0.9900293 0.9972823 0.9963357
0.9907479 0.9826873 0.9840307 0.9853552 1.0026779 0.9938503 0.99485403 1.007351
0.9900969 1.0096536 0.9919215 0.993248 0.98346454 0.9906128 1.0040706 0.9892421
0.99125093 0.9962294 1.0057021 0.99690515 0.99872184 0.99186295 1.0157483 0.9779887
0.97990596 1.0103068 1.007885 1.0049387 1.0042375 0.9999605 1.0035814 0.99402523
0.9891904 0.99688923 0.9925689 0.97981614 0.99838316 1.0112118 0.9923469 0.9929992
0.9968461 1.0284437 1.0039991 1.0778764 1.0023657 0.99110746 1.0104414 0.98575115
00000000: 33fa 7c3f 4157 7f3f f07a 7c3f f324 7c3f
00000010: 30ac 7e3f f870 7e3f 9011 7f3f e1af 7a3f
00000020: 81db 813f f09f 833f b28b 7c3f 9b4a 803f
00000030: 9e60 7d3f 9602 813f 53db 813f 1b31 803f
00000040: b50f 803f c54c 7f3f 9ca3 7d3f 9ea1 7d3f
00000050: afa1 7f3f 6f67 7e3f b628 803f cee2 7d3f
00000060: 7d69 803f f87e 7b3f 5189 7e3f bf85 7f3f
00000070: fe44 803f e4c3 7d3f da5a 803f 2f7b 7e3f
00000080: 3339 7c3f 8628 7d3f f05e 7e3f 0813 803f
00000090: 3f4c 833f a863 803f 4e60 7e3f 0642 7c3f
000000a0: 558b 7f3f b09e 803f dea0 803f 201f 803f
000000b0: 2a3b 7c3f 96d0 7e3f 67c1 803f 3623 803f
000000c0: 1779 843f 799e 7b3f 00cd 7f3f 597f 803f
000000d0: 115f 7f3f 53cf 7d3f 89fc 873f 3aa8 7f3f
000000e0: ecaa 7f3f 7422 7c3f 7b98 7f3f 1e48 803f
000000f0: bca9 7c3f 47c6 853f 180d 803f 38cb 7e3f
00000100: f87b 7a3f 55f7 7f3f abe2 7f3f f27b 7d3f
00000110: fce7 7d3f 3499 7e3f 5c81 843f a0fe 7d3f
00000120: bb21 803f 1e35 813f f708 803f 3450 7e3f
00000130: 06b7 7e3f 8f72 7d3f e54d 7f3f db0f 7f3f
00000140: a8a1 7d3f 6591 7b3f 70e9 7b3f 3d40 7c3f
00000150: c057 803f f96c 7e3f c1ae 7e3f e1f0 803f
00000160: fe76 7d3f 543c 813f 91ee 7d3f 8045 7e3f
00000170: 55c4 7b3f cd98 7d3f 6385 803f f83e 7d3f
00000180: 9fc2 7d3f e408 7f3f d9ba 803f 2d35 7f3f
00000190: 3cac 7f3f bbea 7d3f 0a04 823f 785d 7a3f
000001a0: 1edb 7a3f bc51 813f 6002 813f d5a1 803f
000001b0: db8a 803f 69fd 7f3f 5b75 803f 7078 7e3f
000001c0: 953b 7d3f 2234 7f3f ff18 7e3f 3bd5 7a3f
000001d0: 0a96 7f3f 636f 813f 720a 7e3f 3235 7e3f
000001e0: 4e31 7f3f 0ba4 833f 0b83 803f dbf7 893f
000001f0: 854d 803f 38b9 7d3f 2556 813f 305a 7c3f

norm1.bias f4 [128]
-0.006500561 -0.0023811024 -0.005407248 -0.010971073 -0.008421789 -0.022176253 -0.008590851 -0.020747583
-0.012525505 0.0032166445 -0.0098124975 -0.007143831 0.00016499253 -0.0066309217 -0.003154974 -0.006951236
-0.022028059 -0.0077095088 -0.008440105 -0.00015801805 -0.009087993 -0.004751047 -0.008068783 -0.0061825896
-0.022968283 -0.0024264525 -0.005905444 -0.0053701503 -0.019774975 -0.012455044 -0.0042962045 -0.007215574
-0.016044442 -0.00591274 -0.0074927323 0.002387456 0.017358039 0.0113737285 -0.0009801345 -0.012552835
-0.01414541 -0.001421751 -0.0054658772 -0.016095834 -0.009237283 -0.011470267 0.0069025406 -0.005484313
-0.02884263 -0.00873754 -0.016255941 -0.0054469532 -0.0037575795 -0.014029122 -0.0073800683 -0.0066527533
-0.009876083 -0.012244018 0.00063946756 -0.004826204 -0.02073108 -0.015062595 0.0024386924 -0.008438173
-0.002370833 -0.0015163196 -0.0048545497 -0.0118829915 -0.011350745 -0.013427006 0.005437102 -0.00375441
-0.0051659015 -0.016630206 -0.0074266763 -0.01051835 -0.002292419 -0.00992288 0.0028469418 -0.008768783
-0.008012884 -0.019153828 -0.010453574 -0.010623249 0.005180324 -0.013978723 -0.0109488005 -0.0029852944
-0.011101338 -0.020797385 -0.013921685 -0.0115034375 -0.013834196 -0.010899716 0.0037507915 0.0019883774
-0.009626969 -0.009464096 -0.0155545985 -0.027570624 0.00033810272 -0.006418108 -0.0021893817 -0.013459558
-0.015868274 -0.011419246 -0.0073322863 -0.010003204 -0.0046516103 0.002414786 -0.003541172 -0.0045637395
-0.0018700629 -0.0051737875 -0.009103455 -0.008099198 -0.003840493 0.0015857416 -0.010439626 -0.0034153387
-0.017311394 -0.0034321568 -0.0039773597 0.007115658 -0.020144599 -0.011623416 -0.0063441307 -0.0105998665
00000000: a802 d5bb 450c 1cbb 492f b1bb 04c0 33bc
00000010: 8bfb 09bc f9aa b5bc a4c0 0cbc d6f6 a9bc
00000020: c737 4dbc 57ce 523b 99c4 20bc cc16 eabb
00000030: d801 2d39 3448 d9bb aec3 4ebb 32c7 e3bb
00000040: 3074 b4bc 0ca0 fcbb 5e48 0abc a6b1 25b9
00000050: cee5 14bc acae 9bbb ee32 04bc 5297 cabb
00000060: fb27 bcbc 1e05 1fbb 7482 c1bb 16f8 afbb
00000070: 21ff a1bc 3e10 4cbc 2dc7 8cbb 9f70 ecbb
00000080: a26f 83bc a8bf c1bb 9885 f5bb dd76 1c3b
00000090: 7232 8e3c e058 3a3c db77 80ba 68aa 4dbc
000000a0: 26c2 67bc 0c5a baba 1a1b b3bb 69db 83bc
000000b0: f957 17bc c9ed 3bbc b52e e23b c0b5 b3bb
000000c0: 6147 ecbc e627 0fbc 2e2b 85bc 5b7c b2bb
000000d0: b941 76bb 67da 65bc 80d4 f1bb 57ff d9bb
000000e0: 4bcf 21bc 229b 48bc f1a1 273a 2225 9ebb
000000f0: 3ad4 a9bc 1ac9 76bc 78d2 1f3b 4340 0abc
00000100: fa5f 1bbb 3ebf c6ba ea12 9fbb e1b0 42bc
00000110: 7af8 39bc f2fc 5bbc b829 b23b 8c0c 76bb
00000120: b946 a9bb 123c 88bc 7a5b f3bb 2855 2cbc
00000130: 693c 16bb 9393 22bc c293 3a3b f1aa 0fbc
00000140: 7948 03bc 7de8 9cbc 7845 2bbc 230d 2ebc
00000150: b5bf a93b 0407 65bc 9962 33bc eea4 43bb
00000160: 63e2 35bc 475f aabc c717 64bc ea78 3cbc
00000170: d3a8 62bc b994 32bc d7cf 753b 704f 023b
00000180: 6fba 1dbc 4c0f 1bbc b7d8 7ebc cadb e1bc
00000190: 6143 b139 fe4e d2bb bb7b 0fbb 7a85 5cbc
000001a0: 2ffe 81bc ca17 3bbc ad43 f0bb 7be4 23bc
000001b0: 896c 98bb 6341 1e3b 0213 68bb 6c8b 95bb
000001c0: e61c f5ba e088 a9bb a826 15bc 80b2 04bc
000001d0: c8b0 7bbb a9d8 cf3a f70a 2bbc e0d3 5fbb
000001e0: a0d0 8dbc 09ee 60bb 8354 82bb 772a e93b
000001f0: 4906 a5bc 2470 3ebc 6de2 cfbb 10ab 2dbc

fc2.weight f4 [128, 128]
-0.039872542 -0.007970146 0.08728919 0.07175945 -0.036615573 0.057783294 -0.08716442 -0.011861027
-0.053930577 0.05136575 0.070757166 -0.018519228 0.08550408 -0.051832374 0.02568163 0.09582311
0.001144982 0.03953225 -0.06567975 -0.020733787 0.050898664 0.069936246 0.09569324 -0.032281812
-0.000860801 -0.08117263 0.020898458 0.009144948 -0.067990206 -0.01802103 0.06406363 -0.08397853
0.032959644 0.043183047 -0.00057164853 -0.06768834 -0.058125358 -0.064459905 -0.08739312 0.0032762918
0.025308589 -0.05901559 0.07276492 0.020356735 0.013176776 -0.08173483 -0.07424808 0.031987835
-0.017191118 0.07641501 -0.040299613 0.033873014 -0.043170583 0.04220239 0.023482889 -0.05869412
-0.079939224 -0.012843819 0.03147956 0.016940463 0.07031902 -0.052017003 0.039127514 -0.07824214
-0.059343085 0.048043966 0.025622075 -0.07881506 -0.03157065 0.037744466 -0.1070622 0.042847417
-0.09215292 0.1017336 -0.0064376853 0.038009215 0.0315851 0.06569177 0.0014617188 -0.0014312546
0.03547745 -0.0384616 -0.07727593 0.054668043 -0.09447327 -0.036428116 0.03288771 0.03463067
-0.059269264 0.026240524 0.043215763 0.01513502 0.050319057 0.04077204 -0.032171708 0.002541433
-0.03380684 0.08312107 -0.022934146 0.083923705 0.033026956 -0.057716794 0.08341602 -0.010980852
-0.014996027 0.041789606 -0.05336362 -0.032947533 0.027892753 -0.100973286 0.04367795 -0.065246455
-0.023296442 -0.02629071 0.04688457 0.002973276 0.05814413 0.067180194 -0.034699854 -0.06431687
0.08788329 0.07161584 0.058122493 -0.109774604 -0.020564327 -0.02972133 0.0024021291 0.06065613
-0.0045905244 -0.00037317534 -0.07469903 -0.068743326 -0.057146583 0.084277615 -0.0051681097 -0.026929218
-0.04615137 -0.077308774 -0.073652506 0.07149938 0.01688618 0.037536997 0.024448862 0.031525303
-0.05067563 0.08604706 -0.022916049 -0.08379639 -0.052102476 -0.03912792 0.031177752 -0.039970133
0.060979083 0.0066608395 0.0020551812 0.028654551 -0.017147126 0.07638558 0.045610715 -0.022996165
-0.02880208 0.019526474 -0.06731659 -0.037051495 0.047494747 0.06391832 0.010751858 0.043719403
0.022511004 -0.062397398 0.07708334 -0.039335925 0.03450732 -0.027223961 -0.019616323 0.05882029
0.057064854 -0.05752789 -0.027283268 0.04193641 -0.019667603 0.025692651 0.057689954 0.058654226
0.043719262 -0.08746476 0.04444906 -0.0040956344 -0.068799585 -0.06708889 -0.074155815 0.036295366
0.037960995 0.021002641 0.04434756 -0.0273695 -0.014650644 0.0694683 0.01866244 -0.088541426
0.06496873 0.06006124 -0.0056296755 -0.0027886843 -0.058664005 0.07441237 -0.038304582 -0.049642082
0.072191454 -0.045055 0.027600978 -0.06269166 -0.00390871 0.07288166 -0.030339526 -0.024678038
-0.019247891 0.08092742 -0.014221468 0.03529056 -0.019789187 -0.037758444 -0.04570907 -0.01400155
-0.017423052 0.03268324 -0.037007373 -0.021562757 -0.011370989 0.010480809 -0.052063387 0.07656026
0.05144103 0.03260205 -0.016965808 0.07424567 0.017310938 -0.011554647 -0.006522109 -0.033550262
0.033904176 -0.038837522 -0.033276662 0.05955127 0.05859736 -0.026761543 0.03507133 -0.04663406
0.07187413 -0.090174384 0.0641894 0.016846934 -0.006555465 -0.079440184 0.080752864 0.037734788
00000000: 6451 23bd 3795 02bc adc4 b23d 9ef6 923d
00000010: 36fa 15bd 2dae 6c3d 4283 b2bd c154 42bc
00000020: 4fe6 5cbd e564 523d 22e9 903d a3b5 97bc
00000030: c31c af3d 2f4e 54bd 4862 d23c e83e c43d
00000040: 3813 963a 92ec 213d 1b83 86bd e7d9 a9bc
00000050: 1e7b 503d bc3a 8f3d d1fa c33d ef39 04bd
00000060: 61a7 61ba d63d a6bd 3e33 ab3c b1d4 153c
00000070: 733e 8bbd d7a0 93bc cb33 833d effc abbd
00000080: b100 073d b5e0 303d afda 15ba 2fa0 8abd
00000090: db14 6ebd 8e03 84bd 2afb b2bd 0eb7 563b
000000a0: f553 cf3c 55ba 71bd c605 953d 2bc3 a63c
000000b0: 67e3 573c 9764 a7bd 610f 98bd ad05 033d
000000c0: 63d4 8cbc 797f 9c3d 3511 25bd 6ebe 0a3d
000000d0: a3d3 30bd 6adc 2c3d 305f c03c 3f69 70bd
000000e0: 2db7 a3bd e26e 52bc b6f0 003d bac6 8a3c
000000f0: 6b03 903d c80f 55bd 2c44 203d 6a3d a0bd
00000100: bc11 73bd c0c9 443d 63e5 d13c ca69 a1bd
00000110: 3a50 01bd f199 1a3d 6d43 dbbd c680 2f3d
00000120: acba bcbd b559 d03d 38f3 d2bb 8daf 1b3d
00000130: 615f 013d 6889 863d 2597 bf3a ef98 bbba
00000140: cd50 113d e989 1dbd d842 9ebd 99eb 5f3d
00000150: 347b c1bd a635 15bd 43b5 063d e4d8 0d3d
00000160: 54c4 72bd 5ef6 d63c 0303 313d e0f8 773c
00000170: 5b1b 4e3d 9500 273d 7bc6 03bd 2c8e 263b
00000180: 0b79 0abd 613b aa3d 64e0 bbbc 31e0 ab3d
00000190: 4647 073d 7268 6cbd 05d6 aa3d 08e9 33bc
000001a0: e5b1 75bc 942b 2b3d d093 5abd fef3 06bd
000001b0: 587f e43c 15cb cebd a6e7 323d ef9f 85bd
000001c0: 2ed8 bebc 9d5f d7bc 090a 403d 4bdb 423b
000001d0: 8a28 6e3d c595 893d 6f21 0ebd 90b8 83bd
000001e0: 28fc b33d 53ab 923d da11 6e3d 82d1 e0bd
000001f0: 8576 a8bc 267a f3bc 0a6d 1d3b 9072 783d
00000200: 1c6c 96bb bfa6 c3b9 cefb 98bd 4dc9 8cbd
00000210: 8912 6abd be99 ac3d 3f59 a9bb aa9a dcbc
00000220: 3809 3dbd 1054 9ebd 20d7 96bd 446e 923d
00000230: e354 8a3c 65c0 193d fb48 c83c ad20 013d
00000240: 4091 4fbd 7139 b03d 70ba bbbc 719d abbd
00000250: 6869 55bd 9944 20bd 7c68 ff3c b9b7 23bd
00000260: 34c5 793d 2c43 da3b 38b0 063b f3bc ea3c
00000270: 2178 8cbc 0b70 9c3d 4dd2 3a3d 7462 bcbc
00000280: 57f2 ebbc fcf5 9f3c 48dd 89bd 4fc3 17bd
00000290: da89 423d 9ce7 823d 9028 303c 1e13 333d
000002a0: ff68 b83c 6a94 7fbd dfdd 9d3d b51e 21bd
000002b0: 8c57 0d3d c904 dfbc 69b2 a0bc 8bed 703d
000002c0: d6bc 693d 5da2 6bbd 2981 dfbc 83c5 2b3d
000002d0: f41d a1bc 6579 d23c 4d4c 6c3d 6a3f 703d
000002e0: f812 333d b920 b3bd 3810 363d ac34 86bb
000002f0: cce6 8cbd e665 89bd 01df 97bd 73aa 143d
00000300: fd7c 1b3d bb0d ac3c c9a5 353d 0036 e0bc
00000310: 4109 70bc 6545 8e3d f9e1 983c 3555 b5bd
00000320: 530e 853d c602 763d 2479 b8bb 5cc2 36bb
00000330: ab49 70bd 8365 983d 44e5 1cbd 7f55 4bbd
00000340: 1dd9 933d 978b 38bd 721b e23c 7c64 80bd
00000350: a314 80bb fb42 953d 998a f8bc 9929 cabc
00000360: c1ad 9dbc 46bd a53d 2901 69bc d68c 103d
00000370: ef1c a2bc 99a8 1abd 6f39 3bbd c266 65bc
00000380: caba 8ebc dcde 053d 0b95 17bd 61a4 b0bc
00000390: 624d 3abc b3b7 2b3c 6b40 55bd a0cb 9c3d
000003a0: d4b3 523d ba89 053d e1fb 8abc 1d0e 983d
000003b0: abcf 8d3c b44f 3dbc 6ab7 d5bb 006c 09bd
000003c0: 1bdf 0a3d 1814 1fbd 1c4d 08bd 08ec 733d
000003d0: c903 703d 063b dbbc f4a6 0f3d 5b03 3fbd
000003e0: be32 933d 59ad b8bd bb75 833d 9502 8a3c
000003f0: 3acf d6bb 89b1 a2bd c261 a53d cb8f 1a3d

fc2.bias f4 [128]
-0.013585489 0.055070207 -0.06120099 0.017751234 -0.008596739 -0.049939547 -0.080058135 -0.014876961
-0.02331659 -0.01823721 0.052250933 0.010805286 0.0036059339 0.03709204 0.06281283 -0.06566826
0.03339541 -0.088383384 0.041247 0.026376307 -0.0038178465 -0.07052991 0.014470802 -0.0022883795
0.04998259 0.026724575 -0.0603204 -0.069925986 0.08760178 0.066095695 0.0571611 -0.067995325
0.049824342 -0.0114450995 -0.031080704 -0.03301782 0.013646097 -0.06580841 -0.028528443 -0.07148415
0.0035871754 0.068469666 0.049497433 0.071346454 -0.05466106 -0.05531648 0.08884142 0.03345961
0.0465694 0.027458359 0.029169362 0.06219431 -0.053275824 -0.004027377 -0.053488895 0.09527258
0.05512998 0.059539374 -0.037829664 0.054828364 -0.0072441627 0.022592561 0.02352132 0.0040872986
-0.006197153 0.04094398 -0.013703912 -0.054399222 0.00925185 -0.005621416 -0.052094728 0.017837746
-0.043493636 -0.04114589 -0.0037087393 -0.09916996 -0.019175729 -0.0006334259 0.028601967 0.043411985
-0.08764645 0.061314348 -0.08830031 -0.013195414 0.019726984 0.053932082 0.054367255 -0.050618283
-0.07188137 -0.06308866 -0.05044591 0.04000874 -0.08149913 0.03657961 -0.0028666612 0.05336784
0.05197103 0.027015563 -0.05972543 -0.082560815 -0.023972716 0.020819474 -0.016772298 -0.07851759
0.06095736 -0.08051598 -0.008671791 -0.008462867 0.07709493 0.061945084 0.00070624077 0.0824781
0.04811259 0.09125878 -0.08815334 -0.008454268 0.020847395 -0.009262178 0.08096508 -0.07047826
-0.047872927 -0.09633646 0.07925242 0.074252576 -0.016232282 -0.07055542 -0.05185601 -0.06038085
00000000: ac95 5ebc 4c91 613d e4ad 7abd 096b 913c
00000010: 56d9 0cbc 698d 4cbd 85f5 a3bd 7fbe 73bc
00000020: 6f02 bfbc 3466 95bc 1305 563d a708 313c
00000030: 8851 6c3b d3ed 173d 03a4 803d 157d 86bd
00000040: a0c9 083d 5902 b5bd 9df2 283d 2013 d83c
00000050: d634 7abb fc71 90bd f116 6d3c a3f8 15bb
00000060: 8bba 4c3d 7fed da3c 8612 77bd 5b35 8fbd
00000070: 9068 b33d 2e5d 873d c221 6a3d 2241 8bbd
00000080: 9c14 4c3d 3a84 3bbc f69c febc b23d 07bd
00000090: e193 5f3c 8fc6 86bd 7bb4 e9bc 4866 92bd
000000a0: d116 6b3b d339 8c3d d2bd 4a3d 171e 923d
000000b0: 47e4 5fbd 8993 62bd 7ef2 b53d f20c 093d
000000c0: 8ebf 3e3d 5af0 e03c 96f4 ee3c 76bf 7e3d
000000d0: c037 5abd 16f8 83bb 2c17 5bbd 451e c33d
000000e0: f9cf 613d 8fdf 733d 47f3 1abd b593 603d
000000f0: 7160 edbb 0914 b93c c9af c03c bfee 853b
00000100: 7d11 cbbb e0b4 273d 5f86 60bc b8d1 5ebd
00000110: 1295 173c db33 b8bb 4861 55bd 7720 923c
00000120: 6226 32bd 9888 28bd 520e 73bb 9f19 cbbd
00000130: 6b16 9dbc 7e0c 26ba ac4e ea3c c4d0 313d
00000140: fb7f b3bd c124 7b3d cbd6 b4bd 9431 58bc
00000150: 7c9a a13c e3e7 5c3d 33b0 5e3d 1e55 4fbd
00000160: 8a36 93bd a134 81bd 5fa0 4ebd 34e0 233d
00000170: 04e9 a6bd 80d4 153d 98de 3bbb 3c98 5a3d
00000180: 93df 543d be4f dd3c a7a2 74bd a515 a9bd
00000190: 6e62 c4bc 9a8d aa3c 0f66 89bc d5cd a0bd
000001a0: 6dae 793d 90e5 a4bd 2114 0ebc d6a7 0abc
000001b0: f2e3 9d3d 21ba 7d3d 0423 393a 47ea a83d
000001c0: b511 453d e2e5 ba3d bd89 b4bd c583 0abc
000001d0: 28c8 aa3c 64c0 17bc 05d1 a53d e856 90bd
000001e0: 6716 44bd 0d4c c5bd 184f a23d bc11 983d
000001f0: 90f9 84bc 5c7f 90bd f866 54bd e951 77bd

norm2.weight f4 [128]
1.0318217 0.9996254 1.0370896 0.99814385 1.0398328 1.0789722 1.0198797 1.000988
1.0025126 1.0121448 1.0498459 1.0024732 1.0722945 1.0053843 1.0009651 1.0135082
1.0042562 0.997833 0.998558 1.0038036 1.0014834 1.0030837 1.0084891 0.9990893
0.99943805 1.0442858 1.0076368 0.9986541 1.0294384 1.0033265 1.011758 1.0050621
1.0044689 1.0005559 1.0012414 0.9989321 1.0026445 1.0486361 1.0288563 1.0362175
0.99907386 1.0234336 1.0152783 1.0524702 1.0000292 0.9992015 1.002482 1.0849311
0.9992946 1.001494 1.0001569 0.99985963 1.0083022 1.002147 1.0042932 1.0024047
1.0126566 0.9992108 1.0102575 1.0754412 1.0015551 1.0030997 1.001934 0.9992692
1.0010165 1.0025713 1.0063211 1.0957144 1.0083717 0.99884754 1.0000867 1.0286869
1.0143381 1.0101151 1.0308123 1.0481268 0.9991337 1.0017515 1.0542935 1.0059359
0.99859524 1.0012064 1.0023324 1.009244 1.00128 1.0037675 1.0344306 1.0028044
1.0105414 0.99993825 1.0134126 1.0042034 1.0037929 1.054822 1.0016075 0.9991905
1.0175933 1.0140002 0.99863726 1.0003912 1.0068561 1.0872552 1.0033963 1.0034748
1.0375062 1.029379 1.0010877 0.9984985 0.9995059 1.0078362 0.9989708 0.99954695
0.9988353 1.0091476 0.99824315 1.0024891 0.9994331 1.0009543 0.999927 1.0089355
1.0574774 0.9981645 0.9981287 1.0021981 1.0138097 1.0012994 1.0052137 0.99873555
00000000: bc12 843f 73e7 7f3f 5abf 843f 5b86 7f3f
00000010: 3e19 853f c31b 8a3f 6b8b 823f 6020 803f
00000020: 5552 803f f68d 813f 5a61 863f 0b51 803f
00000030: f240 893f 6fb0 803f a01f 803f a3ba 813f
00000040: 788b 803f fc71 7f3f 7fa1 7f3f a37c 803f
00000050: 9c30 803f 0c65 803f 2c16 813f 51c4 7f3f
00000060: 2cdb 7f3f 28ab 853f 3efa 803f cca7 7f3f
00000070: a3c4 833f 016d 803f 4981 813f e0a5 803f
00000080: 7092 803f 3712 803f ae28 803f 04ba 7f3f
00000090: a856 803f b539 863f 90b1 833f c6a2 843f
000000a0: 4ec3 7f3f dfff 823f a4f4 813f 58b7 863f
000000b0: f500 803f abcb 7f3f 5551 803f 06df 8a3f
000000c0: c5d1 7f3f f530 803f 2405 803f cdf6 7f3f
000000d0: 0c10 813f 5a46 803f ae8c 803f cc4e 803f
000000e0: bb9e 813f 47cc 7f3f 1e50 813f 0fa8 893f
000000f0: f532 803f 9265 803f 603f 803f 1bd0 7f3f
00000100: 4f21 803f 4254 803f 21cf 803f 5f40 8c3f
00000110: 5312 813f 79b4 7f3f d702 803f 03ac 833f
00000120: d5d5 813f 744b 813f a8f1 833f 0529 863f
00000130: 3ac7 7f3f 6539 803f 17f3 863f 82c2 803f
00000140: f0a3 7f3f 8827 803f 6e4c 803f e82e 813f
00000150: f129 803f 747b 803f 3968 843f e55b 803f
00000160: 6c59 813f f4fb 7f3f 81b7 813f bd89 803f
00000170: 497c 803f 6804 873f ad34 803f f3ca 7f3f
00000180: 7f40 823f c2ca 813f b1a6 7f3f d20c 803f
00000190: a9e0 803f 2e2b 8b3f 4a6f 803f dd71 803f
000001a0: 01cd 843f b1c2 833f a423 803f 999d 7f3f
000001b0: 9edf 7f3f c700 813f 8dbc 7f3f 4fe2 7f3f
000001c0: acb3 7f3f c02b 813f dd8c 7f3f 9051 803f
000001d0: d9da 7f3f 451f 803f 37fb 7f3f cc24 813f
000001e0: 6b5b 873f b587 7f3f 5d85 7f3f 0748 803f
000001f0: 84c4 813f 942a 803f d8aa 803f 22ad 7f3f

norm2.bias f4 [128]
0.0054511945 0.0030133785 0.010125421 -0.0023789008 0.006961842 0.017150046 0.0053475527 0.0005072317
0.00042815896 0.0024369685 0.0060012154 0.003187804 0.008375884 0.0007935716 -0.00017576195 0.003299752
0.0030944652 0.00059580454 -0.0009017859 -0.0018598514 0.0011518718 0.0006942538 0.0041599823 -0.0005620265
-0.0012371455 0.010113971 0.0035001945 0.00010289922 0.004303321 -0.0049754926 0.00657885 -0.001039563
0.00034479692 -0.0012180244 0.0030034054 -3.61508e-05 0.0003939768 0.004193637 0.01058899 0.009544849
0.0013301431 -8.4368934e-05 0.0030960566 0.008593399 -0.00026947254 0.0020298 0.00418466 0.015691997
-6.117801e-05 0.0014313096 -0.0021090456 -0.00013898201 -0.0014776351 0.0022973348 0.0011122307 0.0006690203
-6.458485e-05 7.2321025e-05 0.0029787347 0.008459325 0.0009606819 0.0026658264 0.0013565853 0.00075145694
-0.0017265714 0.0037576382 0.00011430634 0.005383587 0.0016970318 -0.001079529 0.0007346382 0.0021337857
0.00023175526 0.005278747 0.0056003607 0.0038060087 0.00014667849 0.0017333482 0.015591693 0.005556359
0.00021446218 -0.0006198363 -0.001729866 0.005755519 -0.00023955527 -0.0018966983 0.011880994 -0.0015407442
0.0034762155 -0.002039976 0.0016273865 -0.0034871085 0.002432608 0.007228443 0.0017024509 0.00040337615
0.0047454257 0.006229805 -0.0007428022 -9.284955e-05 0.0022681968 0.002170314 2.0114703e-05 6.7549285e-05
0.0073295557 0.0074179317 0.0005739966 -4.5320547e-05 5.9131737e-05 0.0015593843 0.00071907317 -0.0001067495
-0.00025961662 0.008836361 -0.00028213643 0.006005182 -9.077695e-05 0.0010269852 -0.0003530296 0.0020609298
0.01010798 -0.0010709207 -0.0022241587 0.0022473738 0.0055927965 0.0008551385 -0.0019514147 0.000863804
00000000: ef9f b23b 1a7c 453b 18e5 253c 55e7 1bbb
00000010: 2a20 e43b 417e 8c3c 863a af3b bef7 043a
00000020: 867a e039 8cb5 1f3b d8a5 c43b 7aea 503b
00000030: 013b 093c b007 503a bd4c 38b9 a740 583b
00000040: 83cc 4a3b c42f 1c3a d465 6cba 42c6 f3ba
00000050: 67fa 963a 95fe 353a 7650 883b f654 13ba
00000060: b727 a2ba 12b5 253c 8563 653b 99cb d738
00000070: df02 8d3b 7509 a3bb 6593 d73b f241 88ba
00000080: dcc5 b439 1ea6 9fba c8d4 443b a0a0 17b8
00000090: ac8e ce39 c76a 893b 717d 2d3c 0062 1c3c
000000a0: 3258 ae3a 3aef b0b8 36e7 4a3b 54cb 0c3c
000000b0: fe47 8db9 6506 053b 791f 893b 818c 803c
000000c0: b24c 80b8 c89a bb3a ea37 0abb b3bb 11b9
000000d0: 35ad c1ba e28e 163b 45c8 913a 3161 2f3a
000000e0: ba71 87b8 0eab 9738 e036 433b fb98 0a3c
000000f0: 45d6 7b3a 25b5 2e3b 73cf b13a 6cfd 443a
00000100: 1f4e e2ba b542 763b c0b7 ef38 cd68 b03b
00000110: f06e de3a fc7e 8dba bc94 403a fcd6 0b3b
00000120: 5403 7339 57f9 ac3b 3b83 b73b 3b6e 793b
00000130: b5cd 1939 8431 e33a 4d74 7f3c 1e12 b63b
00000140: 41e1 6039 837c 22ba acbc e2ba cb98 bc3b
00000150: 2131 7bb9 a29a f8ba 80a8 423c ccf2 c9ba
00000160: 38d1 633b 1eb1 05bb 084e d53a f987 64bb
00000170: 646c 1f3b 93dc ec3b c624 df3a 3b7c d339
00000180: 847f 9b3b 6423 cc3b 9db8 42ba 39b8 c2b8
00000190: 07a6 143b d43b 0e3b ffbb a837 3fa9 8d38
000001a0: c52c f03b 1f12 f33b 4378 163a 9116 3eb8
000001b0: 3804 7838 4164 cc3a 2f80 3c3a b4de dfb8
000001c0: 271d 88b9 62c6 103c b6eb 93b9 1ec7 c43b
000001d0: 815f beb8 e89b 863a d516 b9b9 aa10 073b
000001e0: f19b 253c 235e 8cba 31c3 11bb ad48 133b
000001f0: c743 b73b 602b 603a 9dc6 ffba e870 623a

fc3.weight f4 [1, 128]
0.26103324 -0.041260134 0.29267767 -0.024988169 0.301081 -0.41778448 0.20874062 -0.08609314
-0.09181813 0.17275377 -0.32678288 0.08897209 0.3982841 -0.12172407 0.0672074 -0.1886121
-0.10403772 -0.0053399587 0.028178904 0.12343379 -0.07848814 -0.09461142 -0.15681958 0.042915806
0.05503 0.31567904 -0.14869794 0.00062643486 -0.25168487 0.12796621 -0.1621264 0.13488661
0.10938539 0.064107426 -0.07821508 -0.01074929 -0.08707736 -0.3278794 -0.26057932 0.27719843
-0.020697786 0.23814563 0.185243 0.343497 -0.048779536 0.029370347 -0.09077399 -0.42999136
-0.028971775 0.07561831 0.10140175 -0.045807086 0.14742522 0.09434212 0.10761438 0.093281366
0.16948439 0.028077574 0.15578389 0.40660322 -0.07827198 -0.09550905 -0.08195733 -0.026962716
-0.08972481 0.09348849 0.14471544 0.45937058 -0.15215829 -0.021886429 0.052789755 -0.24776244
-0.1837335 0.1732981 -0.2611533 0.32944807 0.026768971 -0.08096737 -0.34764722 0.11962429
-0.017040778 -0.07695795 -0.111751355 -0.16674016 -0.08663589 0.10492112 -0.28302178 0.094331644
0.16284347 -0.06800249 0.17797397 0.10577075 -0.1296439 -0.34214637 0.08000005 0.04593009
-0.20043214 0.18523128 0.012752537 0.05983633 0.15377781 0.4387604 0.10734548 0.11174641
-0.28274646 -0.25877512 -0.0725935 -0.022734214 -0.043936446 -0.13848871 0.019920787 0.037135173
-0.012020134 0.16152538 0.033693846 -0.09034653 0.036456663 -0.080156155 0.09062272 -0.16413201
-0.34975144 0.0035022337 -0.06380104 0.08446624 0.17448807 -0.07256484 -0.11332536 -0.011150866
00000000: 26a6 853e 6300 29bd d9d9 953e fdb3 ccbc
00000010: 4a27 9a3e d9e7 d5be 1ac0 553e 9a51 b0bd
00000020: 250b bcbd 5de6 303e 1650 a7be 0037 b63d
00000030: e5eb cb3e 784a f9bd 09a4 893d 8823 41be
00000040: ba11 d5bd d2fa aebb 72d7 e63c dbca fc3d
00000050: 64be a0bd a2c3 c1bd 5095 20be 7cc8 2f3d
00000060: 2367 613d afa0 a13e 4644 18be 5537 243a
00000070: d7dc 80be 9309 033e 7704 26be b71f 0a3e
00000080: 7305 e03d c14a 833d 3a2f a0bd ca1d 30bc
00000090: 9d55 b2bd cfdf a7be a76a 85be f4ec 8d3e
000000a0: 678e a9bc 73dc 733e 57b0 3d3e d7de af3e
000000b0: 0dcd 47bd 159a f03c b7e7 b9bd d427 dcbe
000000c0: 3756 edbc c6dd 9a3d b9ab cf3d 36a0 3bbd
000000d0: a3f6 163e 7136 c13d ee64 dc3d 4d0a bf3d
000000e0: 518d 2d3e f102 e63c d085 1f3e 4c2e d03e
000000f0: 0f4d a0bd 409a c3bd 3fd9 a7bd eae0 dcbc
00000100: a4c1 b7bd e576 bf3d 4930 143e 9f32 eb3e
00000110: 62cf 1bbe 2b4b b3bc 123a 583d 70b5 7dbe
00000120: a224 3cbe 0f75 313e e3b5 85be 6bad a83e
00000130: 9a4a db3c 38d2 a5bd d1fe b1be 94fd f43d
00000140: 1a99 8bbc 219c 9dbd e5dd e4bd efbd 2abe
00000150: 286e b1bd e2e0 d63d 3be8 90be f330 c13d
00000160: 70c0 263e e444 8bbd cf3e 363e 569e d83d
00000170: 5fc1 04be cf2d afbe 11d7 a33d 3121 3c3d
00000180: 153e 4dbe 45ad 3d3e 04f0 503c f116 753d
00000190: ee77 1d3e 34a5 e03e f2d7 db3d 4ddb e43d
000001a0: 25c4 90be 2c7e 84be e7ab 94bd 1a3d babc
000001b0: b4f6 33bd fccf 0dbe eb30 a33c 0d1b 183d
000001c0: 19f0 44bc e966 253e 8f02 0a3d 9a07 b9bd
000001d0: 9553 153d e928 a4bd 6898 b93d 3912 28be
000001e0: 9f12 b3be bb85 653b 1faa 82bd a3fc ac3d
000001f0: 00ad 323e e09c 94bd 2017 e8bd 1fb2 36bc
