prototype_1/centralized/models/centralized-model.pth (torch, 90796 bytes, 5 tensors)

fc1.weight f4 [128, 41]
-4.609686 -0.04097542 0.84222347 2.030609 -0.13075644 2.0214221 1.9113073 0.9141286
-2.2514372 0.7825914 -1.002005 0.9959717 0.7630264 0.0647449 0.4534743 0.65468675
-0.3779337 1.5672039 -0.44884732 -0.15998955 -0.11178347 -0.11514953 -1.9458576 -0.5454531
1.612413 1.6040311 -0.08548216 1.0643992 0.74271274 -1.4701433 -0.95918983 2.7497745
1.1036265 -0.036728125 -0.680904 -0.25009453 -0.30467343 0.38791075 -0.29350132 -0.1280618
0.8382259 -0.76972425 -0.807079 -0.6931924 0.44025362 -2.4420764 -3.1862602 -0.90097904
-1.5773842 -1.3577143 -1.8344858 1.3373957 2.4915395 3.0132973 -0.20226866 -0.8181609
-1.1232233 0.7103107 1.2053875 -0.8710545 0.86078566 0.1957869 0.3058399 -1.0822321
-1.3009675 -0.031986453 0.2037846 0.295926 0.55739546 0.16241004 1.9829134 -2.6985645
-0.6524808 -0.6080321 -0.4818549 1.4001449 0.8460741 1.0079076 0.02880631 -0.66953385
-0.45110384 0.70409644 0.5949607 0.07933748 -0.05173052 0.5368798 -0.30634537 1.6419717
0.9725834 -0.75387454 -1.9799627 -1.3362619 -1.1688176 1.1213229 1.6268264 -2.8427382
-0.0001555614 0.25474095 1.67605 -6.2196393 -2.0665329 1.5147994 -0.10265208 0.15102096
-0.90962434 -0.09517153 0.795864 -0.11481954 -0.95267737 0.28778127 1.3426762 -2.6603408
-3.538529 2.356387 0.31052917 4.39344 0.27042717 1.1983099 1.3011606 0.8670252
-3.0075443 0.07614345 1.3515705 0.034946203 1.5491589 1.2350458 1.4824787 1.0500073
-0.4891635 2.279582 1.9755856 3.5944555 2.8731444 -0.31280708 0.38570103 2.6745815
-0.044609237 1.6580913 1.729301 0.2790326 0.74665755 -2.773244 0.23926312 0.08075596
-0.002137916 -0.895611 -0.62889063 1.3837334 -0.123756066 0.02691838 -1.2261981 -0.73750836
7.2220035 -1.6648134 2.0988007 2.0239892 -0.20680429 0.467081 -0.45122352 -0.46597534
1.8313876 -4.8841634 -0.10108475 0.45052245 0.90257573 0.62041813 0.18876301 1.738062
0.7511169 -0.90586466 -0.60451776 -0.78873295 -0.3671176 -0.271865 0.5142729 0.5259492
1.5512885 -0.35743603 -0.30431795 -0.5460282 -0.5015765 0.5098978 0.23351772 -0.53953856
-0.067455836 -0.06475091 -0.40688765 -0.06106337 -0.29595268 -0.20952359 -0.53475505 0.17860286
-0.617063 1.4037181 -0.42117614 0.95398587 -0.27417415 0.66296065 0.046041034 0.53024286
0.48231134 0.0714629 3.7776456 -0.1164186 0.16674122 0.21544743 0.26322705 -0.018623326
0.56060433 -0.4365752 -0.35826704 -0.35550457 0.03959846 -0.16161025 -0.021315172 -0.26442868
0.17192368 0.18808052 -0.10306189 -0.23326853 -0.09120878 -0.04002625 0.05546985 0.045145884
-0.009675489 0.6255445 0.5446118 -0.22641867 0.06458655 -0.115571894 0.27219808 -0.056405015
-0.006980035 -0.08710669 -0.17994396 -0.044305768 0.29948673 -0.2486851 -0.077041544 0.2604698
0.21694644 0.2069318 0.2609407 -0.45270798 -0.5651846 0.11439524 -0.6928996 0.25527978
0.6774217 0.41238016 -0.43621054 0.022339229 0.69221526 0.5610661 -1.1979257 0.13607319
00000000: 8c82 93c0 d8d5 27bd f59b 573f 7ff5 0140
00000010: 04e5 05be fb5e 0140 b8a5 f43f 5504 6a3f
00000020: 8c17 10c0 e957 483f b341 80bf 00f8 7e3f
00000030: b355 433f f998 843d c92d e83e 8d99 273f
00000040: 8780 c1be 239a c83f 51cf e5be 4dd4 23be
00000050: bbee e4bd 84d3 ebbd dd11 f9bf d0a2 0bbf
00000060: 8d63 ce3f e450 cd3f 4511 afbd 3c3e 883f
00000070: 6c22 3e3f a82d bcbf 778d 75bf 4efc 2f40
00000080: a243 8d3f 3b70 16bd b94f 2ebf 640c 80be
00000090: 28fe 9bbe 3d9c c63e ce45 96be a222 03be
000000a0: f995 563f a60c 45bf bb9c 4ebf 0f75 31bf
000000b0: ec68 e13e fb4a 1cc0 b0eb 4bc0 90a6 66bf
000000c0: bae7 c9bf 95c9 adbf 6ed0 eabf c82f ab3f
000000d0: 6275 1f40 ddd9 4040 841f 4fbe fe72 51bf
000000e0: c8c5 8fbf ecd6 353f 234a 9a3f 6dfd 5ebf
000000f0: 735c 5c3f 5c7c 483e 0c97 9c3e 9586 8abf
00000100: 1a86 a6bf 3a04 03bd e9ac 503e 9d83 973e
00000110: 78b1 0e3f d14e 263e 1bd0 fd3f 48b5 2cc0
00000120: fb08 27bf fea7 1bbf afb5 f6be f337 b33f
00000130: 5098 583f 1e03 813f 36fb eb3c 9266 2bbf
00000140: 15f7 e6be aa3f 343f 584f 183f b07b a23d
00000150: 62e3 53bd f470 093f 4dd9 9cbe 212c d23f
00000160: 3afb 783f ecfd 40bf 6b6f fdbf a10a abbf
00000170: d19b 95bf 8287 8f3f d93b d03f 6cef 35c0
00000180: 321e 23b9 686d 823e ce88 d63f 4907 c7c0
00000190: 1342 04c0 f2e4 c13f 413b d2bd 3da5 1a3e
000001a0: 24dd 68bf 4be9 c2bd bebd 4b3f 8226 ebbd
000001b0: aae2 73bf 1158 933e d0dc ab3f 0643 2ac0
000001c0: 4277 62c0 0bcf 1640 aefd 9e3e 0f97 8c40
000001d0: 6e75 8a3e 3862 993f 6e8c a63f 5df5 5d3f
000001e0: 9b7b 40c0 19f1 9b3d 4300 ad3f c023 0f3d
000001f0: d74a c63f fb15 9e3f ddc1 bd3f a466 863f
00000200: a373 fabe ace4 1140 fddf fc3f 8f0b 6640
00000210: 99e1 3740 4028 a0be 9b7a c53e 582c 2b40
00000220: 2db8 36bd 563c d43f bc59 dd3f 5cdd 8e3e
00000230: f324 3f3f d47c 31c0 6401 753e 6163 a53d
00000240: 471c 0cbb c346 65bf fafe 20bf 2d1e b13f
00000250: d273 fdbd ef83 dc3c 0ff4 9cbf 59cd 3cbf
00000260: a71a e740 9b18 d5bf c052 0640 0a89 0140
00000270: 81c4 53be 3e25 ef3e c506 e7be 5294 eebe
00000280: e96a ea3f 114b 9cc0 8505 cfbd e1aa e63e
00000290: 340f 673f b9d3 1e3f 174b 413e d178 de3f
000002a0: 3249 403f bfe6 67bf adc1 1abf 67ea 49bf
000002b0: d7f6 bbbe e431 8bbe 64a7 033f 9ba4 063f
000002c0: 9f90 c63f db01 b7be 90cf 9bbe 81c8 0bbf
000002d0: 5167 00bf aa88 023f 451f 6f3e 331f 0abf
000002e0: 4926 8abd 209c 84bd 9453 d0be 961d 7abd
000002f0: 1c87 97be 5a8d 56be b5e5 08bf abe3 363e
00000300: d7f7 1dbf 09ad b33f 66a4 d7be 6b38 743f
00000310: 8e60 8cbe cab7 293f 8695 3c3d ffbd 073f
00000320: 83f1 f63e 245b 923d f2c4 7140 e06c eebd
00000330: 36be 2a3e 409e 5c3e b2c5 863e f28f 98bc
00000340: c483 0f3f c986 dfbe c76e b7be b204 b6be
00000350: ff31 223d 287d 25be 289d aebc 3263 87be
00000360: c30c 303e 2e98 403e 1d12 d3bd f2dd 6ebe
00000370: abcb babd 91f2 23bd 5a34 633d e4ea 383d
00000380: f185 1ebc af23 203f ae6b 0b3f 4cda 67be
00000390: f445 843d f5b0 ecbd 8c5d 8b3e f208 67bd
000003a0: c7b8 e4bb fe64 b2bd 3b43 38be f779 35bd
000003b0: 5356 993e 4fa7 7ebe f5c7 9dbd 4c5c 853e
000003c0: 3527 5e3e eee5 533e 059a 853e 57c9 e7be
000003d0: f0af 10bf 0d48 ea3d de61 31bf 08b4 823e
000003e0: 826b 2d3f 7e23 d33e fd56 dfbe c200 b73c
000003f0: 0535 313f 07a2 0f3f a155 99bf c556 0b3e

fc1.bias f4 [128]
-2.7581112 -3.129901 -2.2953212 -4.252337 -4.210878 -2.5677536 -4.190669 -4.894275
-3.898485 -5.056245 -3.0377088 0.84423816 -6.1889424 -1.0686518 -1.0797987 -6.179083
-1.1213934 -2.6712828 -0.7876647 -1.4781739 -2.0681376 -4.32161 -3.9515095 -1.5056096
-3.7145069 -5.0239596 -2.0819588 -4.2912498 0.36253417 -0.20770729 -7.039159 -5.2866364
-4.191227 -2.6508143 -5.761572 -5.2302403 -2.7594395 -5.4135528 -1.382685 -3.70696
-5.103802 -1.1836084 -1.5365181 -4.421634 -4.9444447 -5.2491045 -1.0612704 -4.893597
-2.4554865 -3.6462185 -5.5255475 -0.36624795 -1.0584625 -2.6876645 -3.2366292 -4.0901537
-5.668677 -2.8821318 -2.3820982 -1.8876567 0.35972884 -5.116172 -1.7828602 -7.722531
-3.7351522 -1.1148756 -1.9209 -3.4701586 -1.0156221 -0.57334846 -1.6009067 -4.272718
-2.938561 -1.6267155 -2.8889835 -6.39593 -3.8166914 -0.59092885 -3.6447396 -5.2698436
-4.540178 -3.933096 -1.1810839 -5.454976 -3.5761764 -3.2582517 -6.323875 -3.869727
-1.0413679 -1.7058717 -0.5430794 -2.831683 -0.8843584 -4.159181 -3.3200054 -1.0372359
-2.6824703 -1.1035298 -2.9149978 -4.4325647 -3.6045856 -0.5171981 -2.583817 -2.1369112
-1.7301794 -0.48560697 -3.6305609 -2.742148 -4.0503902 -5.222807 -0.6700607 -2.655755
-3.4180148 -3.7803123 -4.874531 -3.3733878 -1.777157 -3.8643177 -7.0786395 -3.5305488
-3.104729 -1.5592585 -3.3914897 -3.524183 -3.4979405 -5.846069 -4.603661 -3.9326804
00000000: e584 30c0 4c50 48c0 8be6 12c0 2513 88c0
00000010: 83bf 86c0 1356 24c0 f619 86c0 e79d 9cc0
00000020: c780 79c0 c2cc a1c0 d269 42c0 fe1f 583f
00000030: d10b c6c0 95c9 88bf d836 8abf 0cbb c5c0
00000040: d289 8fbf 4cf6 2ac0 65a4 49bf cd34 bdbf
00000050: 5e5c 04c0 a14a 8ac0 88e5 7cc0 d1b7 c0bf
00000060: 7bba 6dc0 47c4 a0c0 d03e 05c0 eb51 89c0
00000070: 149e b93e 38b1 54be ca40 e1c0 202c a9c0
00000080: 881e 86c0 f1a6 29c0 cc5e b8c0 215e a7c0
00000090: a89a 30c0 d33b adc0 d2fb b0bf d53e 6dc0
000000a0: 5952 a3c0 7b80 97bf a0ac c4bf 077e 8dc0
000000b0: e438 9ec0 aaf8 a7c0 b5d7 87bf 5998 9cc0
000000c0: b126 1dc0 a55b 69c0 49d1 b0c0 da84 bbbe
000000d0: b37b 87bf b202 2cc0 ef24 4fc0 8ae2 82c0
000000e0: cd65 b5c0 d974 38c0 4c74 18c0 bc9e f1bf
000000f0: 612e b83e aeb7 a3c0 c334 e4bf f91e f7c0
00000100: bc0c 6fc0 3eb4 8ebf 0de0 f5bf 1417 5ec0
00000110: e8ff 81bf f7c6 12bf 83ea ccbf 1bba 88c0
00000120: 6211 3cc0 3738 d0bf 1be5 38c0 75ab ccc0
00000130: ac44 74c0 1d47 17bf 6a43 69c0 8fa2 a8c0
00000140: 2349 91c0 d8b7 7bc0 c22d 97bf 2a8f aec0
00000150: 13e0 64c0 3287 50c0 2f5d cac0 9ba9 77c0
00000160: 8b4b 85bf 015a dabf 4007 0bbf 4b3a 35c0
00000170: 5065 62bf 0318 85c0 f87a 54c0 25c4 84bf
00000180: 98ad 2bc0 7740 8dbf 538f 3ac0 92d7 8dc0
00000190: 88b1 66c0 1867 04bf 425d 25c0 27c3 08c0
000001a0: 8576 ddbf 7aa1 f8be 1c5b 68c0 5a7f 2fc0
000001b0: cc9c 81c0 3c21 a7c0 1989 2bbf e4f7 29c0
000001c0: c1c0 5ac0 a3f0 71c0 28fc 9bc0 96e5 57c0
000001d0: e179 e3bf fb50 77c0 3784 e2c0 83f4 61c0
000001e0: e1b3 46c0 c895 c7bf 2b0e 59c0 378c 61c0
000001f0: 42de 5fc0 ff12 bbc0 3151 93c0 09b1 7bc0

fc2.weight f4 [128, 128]
-0.06433977 -0.21687423 -0.17496912 -0.20591041 -0.1553791 -0.23199825 -0.040294643 0.00693028
-0.16394316 -0.1389726 0.019494778 -0.28729284 -0.17140704 0.11809487 -1.2520914 -0.2112691
-0.04091166 -0.22457787 -0.32575276 0.06342493 -0.17546333 -0.059616245 -0.118871495 -0.13186826
-0.13843049 0.02437699 -0.1886294 -0.1317013 -0.29067847 -0.4746539 -0.13172498 0.120358504
-0.09726062 -0.06583794 -0.1716367 -0.14902504 -0.1399282 -0.18168257 -0.3907274 0.03945749
-0.15500192 -0.32065594 -0.2851982 0.094019495 -0.28960434 -0.29872409 -0.23939715 -0.40934902
-0.12109898 0.12793031 -0.18168104 -0.46236563 -0.16180046 -0.9202662 -0.2281634 -0.024689829
-0.11210213 -0.01896728 -0.09890861 -0.2388414 -0.20788738 0.0023127748 -0.23108198 -0.15054931
-0.14963855 -0.42664054 0.07372637 -0.22671528 -0.12318829 -1.4758719 -0.24175823 0.025965855
-0.19997607 0.11648291 -0.18756758 -0.10749509 -0.16226096 -1.2923561 -0.13632296 -0.057748854
0.015224505 -0.08973339 -1.0325605 -0.1564938 0.31861672 0.036218204 -0.22711615 -0.083001085
-0.20792341 -0.22037278 -1.3123016 -0.20342624 0.1455239 -0.27988037 -0.30753794 -0.26053706
-0.11640495 0.86102986 -0.1842773 -0.090707354 -0.23540024 -0.36638165 0.22908513 -0.06637942
-0.32469484 -1.0172348 -0.22188 -0.37533855 -0.37603313 -0.21401271 -0.23255189 -0.18711124
-0.025149733 -0.30606458 -0.21441656 -0.32476142 -0.15016931 -0.049237818 -0.15988004 -0.22368093
-0.057167504 -0.2905246 -0.26758516 -0.061961923 -0.31471658 -0.20318943 -0.22746113 0.09876415
0.020009935 -0.24700496 -0.22052126 -0.47042248 -0.086059414 -0.062018573 0.08973843 -0.015266044
-0.07931536 -0.2514817 0.046136465 -0.3327839 -0.3318748 -0.19624752 -0.19073938 -0.05460903
-0.34888992 -0.22347169 -0.26549867 0.057437204 -0.18352245 -0.34854385 -0.17357385 -0.1879982
-0.3990129 -0.26048777 -0.24502343 -0.40634328 -0.47452125 -0.12732966 -0.24812199 0.08009938
-0.09604758 -0.036403295 0.0029309194 -0.49653256 -0.40878224 -0.024590598 -0.09826669 0.25632444
-0.25003666 -0.3924524 -0.063736215 -0.11384393 -0.17696409 -0.16121721 -0.2609561 -0.27934685
0.08902031 -0.34300223 -0.5273922 -0.2705544 -0.41888022 -0.29208484 -0.18043093 -0.5655582
-0.09032463 0.00940237 -0.18399207 -0.15458623 -0.4245982 0.26647344 -0.17745174 -0.25674242
-0.048809487 -0.24801262 -0.017666146 -0.14038804 -0.47714812 -0.38859585 -0.12392496 -0.1988716
-0.13466398 -0.19753838 -0.05905958 0.102941036 -0.2103092 -0.50617886 -0.107979506 -0.21086611
0.0864143 -0.22366281 -0.1692958 -0.07937027 -0.16269831 -0.16713126 -0.111917086 -0.03420537
-0.22906643 0.11472601 -0.25175616 -0.11098916 -0.02890714 -0.09193533 -0.4961596 0.008688505
-0.04704082 -0.25003013 -0.21484049 -0.015691672 -0.2993058 -0.13661456 -0.24831492 0.052266575
-0.41342172 -0.5463065 -0.31374273 -0.11828042 -0.3702169 -0.25570983 -0.24839458 -0.022949487
-0.07842307 -0.22467467 -0.04892035 -0.29056638 -0.24290381 -0.38272384 -0.13486233 -0.2583747
-0.107633 -0.2972505 -0.19030522 -0.014138876 -0.17612691 -0.14106709 0.056781422 0.0018956483
00000000: 92c4 83bd 4714 5ebe 1b2b 33be 2eda 52be
00000010: b31b 1fbe f390 6dbe ff0b 25bd 6717 e33b
00000020: b7e0 27be d54e 0ebe 83b3 9f3c 0c18 93be
00000030: 5485 2fbe b9db f13d 8844 a0bf ed56 58be
00000040: fc92 27bd bef7 65be 11c9 a6be eee4 813d
00000050: a9ac 33be 2a30 74bd e672 f3bd 7908 07be
00000060: b9c0 0dbe 41b2 c73c 1128 41be b5dc 06be
00000070: cfd3 94be d605 f3be eae2 06be 857e f63d
00000080: 9330 c7bd 0bd6 86bd 88c1 2fbe 059a 18be
00000090: 5749 0fbe ff0a 3abe 6c0d c8be 2d9e 213d
000000a0: d3b8 1ebe 042d a4be 8005 92be 4b8d c03d
000000b0: 0547 94be 5df2 98be 8724 75be 3296 d1be
000000c0: be02 f8bd 2a00 033e 980a 3abe 30bb ecbe
000000d0: 05af 25be 9196 6bbf aba3 69be 5342 cabc
000000e0: cd95 e5bd 4561 9bbc 9990 cabd d792 74be
000000f0: 6ee0 54be ec91 173b c1a0 6cbe 9929 1abe
00000100: d93a 19be a170 dabe dafd 963d 0d28 68be
00000110: 244a fcbd 5fe9 bcbf 788f 77be 58b6 d43c
00000120: 87c6 4cbe 988e ee3d b711 40be 6326 dcbd
00000130: bd27 26be ed6b a5bf 3f98 0bbe 108a 6cbd
00000140: 3470 793c 24c6 b7bd f12a 84bf e93f 20be
00000150: bb21 a33e 8a59 143d 2391 68be 79fc a9bd
00000160: e0e9 54be 67a9 61be 80f9 a7bf f84e 50be
00000170: 3804 153e 7b4c 8fbe 9d75 9dbe 1d65 85be
00000180: b865 eebd 746c 5c3f 30b3 3cbe c7c4 b9bd
00000190: c30c 71be 6096 bbbe 4b95 6a3e eff1 87bd
000001a0: 673e a6be c034 82bf 8334 63be 602c c0be
000001b0: 6a87 c0be 2626 5bbe 1522 6ebe 179a 3fbe
000001c0: d006 cebc 7fb4 9cbe 0490 5bbe 2147 a6be
000001d0: fcc5 19be 98ad 49bd 98b7 23be 9d0c 65be
000001e0: 7928 6abd a4bf 94be ec00 89be c9cb 7dbd
000001f0: 8822 a1be e410 50be 92eb 68be dc44 ca3d
00000200: e0eb a33c deee 7cbe 53d0 61be 37db f0be
00000210: eb3f b0bd 3007 7ebd c8c8 b73d 6e1e 7abc
00000220: 1770 a2bd 36c2 80be 97f9 3c3d a762 aabe
00000230: 7eeb a9be 1cf5 48be 2f51 43be b8ad 5fbd
00000240: b3a1 b2be c3d5 64be 71ef 87be 4643 6b3d
00000250: 4fed 3bbe 5774 b2be 58bd 31be 9a82 40be
00000260: 6b4b ccbe a75e 85be 6ce7 7abe 3a0c d0be
00000270: 73f4 f2be b562 02be b113 7ebe 250b a43d
00000280: 98b4 c4bd 9f1b 15bd ab14 403b 8439 febe
00000290: e84b d1be 3972 c9bc 0c40 c9bd f53c 833e
000002a0: ce04 80be 85ef c8be 2288 82bd 0227 e9bd
000002b0: 1336 35be 2016 25be 0a9c 85be 8d06 8fbe
000002c0: 4850 b63d fd9d afbe 2d03 07bf 1b86 8abe
000002d0: 7877 d6be 258c 95be e3c2 38be 6cc8 10bf
000002e0: 1ffc b8bd 660c 1a3c 6b68 3cbe da4b 1ebe
000002f0: ef64 d9be 356f 883e e9b5 35be be73 83be
00000300: 75ec 47bd 05f7 7dbe 98b8 90bc e2c1 0fbe
00000310: c24c f4be 09f6 c6be 5fcc fdbd ffa4 4bbe
00000320: 5be5 09be 8047 4abe 75e8 71bd c0d2 d23d
00000330: 4c5b 57be f094 01bf 5c24 ddbd 49ed 57be
00000340: fbf9 b03d dd07 65be e15b 2dbe e18c a2bd
00000350: 639a 26be 7524 2bbe c934 e5bd ee1a 0cbd
00000360: 6490 6abe 78f5 ea3d 2fe6 80be 494e e3bd
00000370: abce ecbc 9748 bcbd a208 febe 3b5a 0e3c
00000380: e0ad 40bd f303 80be 25ff 5bbe d28b 80bc
00000390: 9c3e 99be b0e4 0bbe 4446 7ebe 7a15 563d
000003a0: 03ac d3be beda 0bbf e3a2 a0be 013d f2bd
000003b0: 128d bdbe 66ec 82be 265b 7ebe 9000 bcbc
000003c0: 469c a0bd 1e11 66be b460 48bd 1ec5 94be
000003d0: c7bb 78be 61f4 c3be 5a19 0abe b049 84be
000003e0: b16e dcbd 3831 98be 5fdf 42be bfa6 67bc
000003f0: 9d5a 34be e473 10be a393 683d 6777 f83a

fc2.bias f4 [128]
-0.4246277 -0.3683956 -0.25487676 -0.29798204 -0.16326417 1.9996629 0.6486144 -0.14055637
-0.69945896 -0.34795 -0.34072012 -0.22564599 -0.6146256 -0.20288108 -0.31005695 -0.9886353
-0.72796637 -0.11828088 1.2492913 -0.5353613 -0.8079139 -0.12370297 -0.6087146 -0.17662553
-0.25918233 -0.06933233 -0.28219652 -3.5203025 -0.84902006 -0.15118681 0.040197097 0.0049564145
-0.45309722 -0.26148677 -0.23159713 -0.18167427 -0.18535969 2.0626037 -0.7626022 -0.23610501
-0.28327873 0.49179706 -0.05280674 -0.70627344 -0.3458021 -0.6313367 -0.41342402 0.019317852
-0.5839578 1.2240498 -0.84741557 -0.31710988 -0.46157402 -1.3247063 -1.3226681 -0.1573201
-0.75745326 -0.9165748 -0.9449682 -0.13379158 -0.30592802 -0.71868736 -0.14802563 -0.18162519
-1.5680282 1.2956196 -0.9925874 -0.30783197 -0.8382936 -0.09424857 -0.41294968 -0.16549131
-0.96025497 -1.726247 0.34226486 -1.0562459 -1.2111795 -0.66032 -0.24113269 -0.037386127
-0.2924834 -0.38382626 -0.41259748 -1.7751756 -0.2953618 -0.50889957 -0.112974145 -0.19353293
-0.20260233 -2.0186071 2.32309 -0.5422682 -0.15070818 -0.23102558 -0.2145616 -0.34298444
-0.85663176 -0.37161875 -1.0103185 -0.30116597 -0.5143766 -2.2402585 4.1316185 0.22694485
-1.1212653 -0.830423 -0.23849438 -0.1928863 -0.78805006 -0.7758025 -0.9047573 -0.35033146
-0.2415551 -0.1421911 -0.71030444 -1.530286 -0.96824217 0.15196647 0.009894741 0.2402042
1.6650497 -0.30955425 -0.25632754 -0.20373031 -0.92925596 2.7634776 -0.23063086 -1.1198353
00000000: cd68 d9be 599e bcbe 357f 82be 1a91 98be
00000010: b92e 27be f4f4 ff3f 980b 263f 02ee 0fbe
00000020: be0f 33bf 8126 b2be de72 aebe be0f 67be
00000030: 1a58 1dbf 0fc0 4fbe c9bf 9ebe 3417 7dbf
00000040: 015c 3abf 3f3d f2bd c7e8 9f3f 700d 09bf
00000050: 72d3 4ebf fc57 fdbd b8d4 1bbf 53dd 34be
00000060: 8cb3 84be 1cfe 8dbd 107c 90be a34c 61c0
00000070: 6159 59bf b7d0 1abe b6a5 243d 6b69 a23b
00000080: 5cfc e7be 98e1 85be cc27 6dbe d208 3abe
00000090: eece 3dbe b301 0440 e639 43bf 83c5 71be
000000a0: e909 91be d3cc fb3e e14b 58bd 56ce 34bf
000000b0: f90c b1be 489f 21bf 50ac d3be 7940 9e3c
000000c0: 427e 15bf aaad 9c3f 3af0 58bf 3a5c a2be
000000d0: 6e53 ecbe fa8f a9bf 304d a9bf 8518 21be
000000e0: 75e8 41bf a5a4 6abf 70e9 71bf a900 09be
000000f0: 99a2 9cbe e5fb 37bf 0894 17be f4fb 39be
00000100: 26b5 c8bf ddd6 a53f 351a 7ebf 279c 9dbe
00000110: 699a 56bf 6505 c1bd 246e d3be 8e76 29be
00000120: 45d3 75bf a9f5 dcbf 573d af3e 1133 87bf
00000130: ee07 9bbf bb0a 29bf 7deb 76be 3222 19bd
00000140: 62c0 95be e084 c4be fa3f d3be f438 e3bf
00000150: a939 97be 3e47 02bf fd5e e7bd 7f2d 46be
00000160: fc76 4fbe dc30 01c0 82ad 1440 17d2 0abf
00000170: 3f53 1abe f891 6cbe 09b6 5bbe a89b afbe
00000180: 384c 5bbf d044 bebe 1e52 81bf 6d32 9abe
00000190: 2fae 03bf 6560 0fc0 3836 8440 3b64 683e
000001a0: 9f85 8fbf 9a96 54bf df37 74be fc83 45be
000001b0: a6bd 49bf fe9a 46bf 2d9e 67bf a55e b3be
000001c0: 385a 77be 8b9a 11be 83d6 35bf 69e0 c3bf
000001d0: b8de 77bf 199d 1b3e 8d1d 223c 17f8 753e
000001e0: 5920 d53f e57d 9ebe 5d3d 83be ae9e 50be
000001f0: b8e3 6dbf d1dc 3040 7f2a 6cbe c356 8fbf

fc3.weight f4 [1, 128]
0.1930162 0.07003125 -0.057823077 0.0735675 0.08436818 0.040616702 -0.14454836 -0.0939282
0.011197735 0.1305239 -0.20407587 0.17758876 0.203316 0.032479286 0.2894576 0.18227594
0.26092413 -0.1657439 0.5242886 0.1192007 -0.005974808 -0.011282286 -0.5098157 0.008516242
0.023896791 -0.0046036886 0.049428593 0.21485794 0.1782697 -0.04592404 -0.89131653 -0.5885258
0.30180714 0.32359707 0.041711487 -0.27682677 0.028572267 0.15451822 -0.19739842 0.05195172
-0.0790768 0.25923404 -0.019429967 0.027583687 -0.08467016 0.1719368 0.38291714 0.24525015
-0.057045415 0.237287 0.3691239 0.031988803 0.06807129 -0.071020626 -0.34145465 0.027191333
-0.10252073 -0.12523119 0.057461057 0.13750191 0.036091805 0.08785325 0.16766399 -0.104142286
-0.31774932 1.0006031 -0.40942898 -0.18017752 0.016262684 0.1100944 0.24395682 -0.008885843
0.3856964 0.24255319 -0.27992344 0.364469 0.41325006 -0.010354685 0.09189076 -0.38962907
-0.35628706 -0.035723705 -0.26119402 0.25370944 0.18305854 -0.20215388 0.030856665 0.27773193
0.16711557 0.00053651066 -0.77983284 -0.41973907 0.071081616 0.09968484 0.040725473 -0.33230618
0.07321318 0.053678352 -0.48551914 0.027429182 0.10144214 0.24829416 -0.20004459 0.07869612
0.3119953 -0.67973346 0.09574117 -0.07990237 0.06672247 0.17231892 0.006344037 -0.17122167
0.076708995 -0.061813723 -0.3636634 0.117902584 -0.14424665 -0.05124824 -0.16468088 0.5368805
-0.034423504 0.022671683 0.00063419534 0.12518223 0.23293059 0.10849631 -0.05266085 0.27215123
00000000: 0aa6 453e 8b6c 8f3d e4d7 6cbd 8faa 963d
00000010: 39c9 ac3d b35d 263d 7c04 14be 6e5d c0bd
00000020: b476 373c 0fa8 053e 44f9 50be d4d9 353e
00000030: 1232 503e 0009 053d c933 943e 8ba6 3a3e
00000040: d997 853e c5b8 29be c737 063f 7f1f f43d
00000050: 52c8 c3bb 56d9 38bc 4883 02bf b587 0b3c
00000060: 34c3 c33c 8ada 96bb a375 4a3d b803 5c3e
00000070: 558c 363e d91a 3cbd 522d 64bf a0a9 16bf
00000080: 7786 9a3e 84ae a53e aad9 2a3d 3dbc 8dbe
00000090: 6310 ea3c 063a 1e3e d022 4abe 54cb 543d
000000a0: 04f3 a1bd 53ba 843e 982b 9fbc 2ff7 e13c
000000b0: 8d67 adbd 3310 303e b70d c43e db22 7b3e
000000c0: 74a8 69bd 5dfb 723e cffd bc3e b106 033d
000000d0: f668 8b3d 4373 91bd 25d3 aebe 5cc0 de3c
000000e0: 63f6 d1bd 9b3c 00be 495c 6b3d 4dcd 0c3e
000000f0: 00d5 133d 68ec b33d 1cb0 2b3e 8d48 d5bd
00000100: 0ab0 a2be c313 803f ada0 d1be 7580 38be
00000110: 5239 853c 2c79 e13d d1cf 793e ed95 11bc
00000120: 007a c53e dd5f 783e 2052 8fbe ae9b ba3e
00000130: 8395 d33e b2a6 29bc 3931 bc3d 767d c7be
00000140: 426b b6be 0553 12bd 39bb 85be 34e6 813e
00000150: b373 3b3e 6d01 4fbe 1ec7 fc3c e132 8e3e
00000160: 5820 2b3e 9fa4 0c3a 20a3 47bf 0ae8 d6be
00000170: 3d93 913d 9127 cc3d c1cf 263d 0924 aabe
00000180: cbf0 953d d5dd 5b3d f795 f8be 2ab3 e03c
00000190: e6c0 cf3d d340 7e3e 7dd8 4cbe 6e2b a13d
000001a0: d9bd 9f3e 0303 2ebf f213 c43d dba3 a3bd
000001b0: caa5 883d 5f74 303e a4e1 cf3b bc54 2fbe
000001c0: 9b19 9d3d 6330 7dbd 1732 babe e976 f13d
000001d0: 65b5 13be ade9 51bd 1ba2 28be 0071 093f
000001e0: a9ff 0cbd f7b9 b93c 2140 263a c52f 003e
000001f0: 5b85 6e3e 5033 de3d e7b2 57bd 6857 8b3e
