prototype_1/centralized/models/centralized-model.pth (torch, 90796 bytes, 5 tensors)

fc1.weight f4 [128, 41]
0.008946167 -0.072615445 0.048662778 0.5072055 -0.16439274 -0.0802832 -0.033675905 0.00075119454
-0.20056035 -0.08571064 -0.28647435 0.0356466 -0.013641136 0.21340746 0.27410576 0.22956656
0.13504796 -0.12552406 0.2532898 0.023616778 -0.07233487 -0.15340304 0.018862594 0.017312778
-0.059940677 -0.012351915 -0.032060772 0.07497266 0.13142972 -0.020150036 0.070029095 -0.08823371
0.10854825 0.0024808808 -0.016755903 -0.10415141 -0.12052667 0.082402565 -0.15769921 0.11779669
-0.08867456 0.116931766 0.13674961 -0.05163425 0.012483957 0.100874215 0.19455507 0.27190596
0.0160931 0.32545888 0.016802294 0.088870965 0.1068147 -0.101503275 0.050352633 0.14598644
0.051902495 0.07927576 0.07074102 0.11278814 0.066721134 -0.11029356 0.064393476 0.15992522
-0.026354045 -0.067096576 -0.10271705 0.118546456 0.11465913 0.12341741 0.11262946 -0.06977536
-0.20895255 0.052653354 0.0572924 -0.35194856 -0.15386714 -0.1589213 0.016740482 0.109416015
0.33118162 -0.06830412 0.22268751 -0.010582681 0.3674399 -0.09869456 0.07728108 -0.049572393
-0.46243474 -0.042057652 -0.251918 -0.26786497 -0.61947227 -0.073730685 -0.13741864 -0.07651844
0.36423486 0.4577371 0.16146997 0.20415846 0.052479945 0.30193794 -0.11037126 -0.047709018
-0.0782538 0.019281087 0.06409555 0.11616764 -0.09362632 -0.12314455 0.11776559 0.45225945
-0.13500287 0.13252127 -0.20237215 0.4388808 0.18140925 -0.008134908 0.03987258 -0.00040309882
-0.17853229 0.43060815 0.0043882844 -0.07300977 0.045339286 -0.17019098 0.067999385 0.017896697
0.15506649 0.09748962 0.0065268325 -0.08506813 0.14690393 -0.15881833 -0.06949968 0.06811443
0.13278651 0.06895045 -0.04162086 -0.14562403 -0.0011324786 -0.010990875 0.082542256 -0.06940054
0.081395954 -0.07070654 -0.12219949 0.005291386 -0.12522204 -0.06016668 0.038862813 -0.07914989
0.06971863 -0.13266338 0.09875756 0.10438535 0.20344195 -0.14152695 -0.08798902 -0.07187135
0.03872 -0.03829133 -0.11129081 -0.09011282 -0.17400429 -0.0006353291 -0.11910368 -0.10001182
0.13849641 -0.14137238 -0.04173048 -0.0056701335 0.12470178 -0.008990155 0.011030761 0.025183305
0.028158937 -0.076306425 0.06367383 -0.19427472 -0.0046636583 0.08440295 -0.1585106 0.20060493
0.15128276 0.07827194 -0.04152251 0.12090224 0.0036651834 0.09593265 -0.07288722 0.011034895
-0.095678136 0.02476357 0.021618398 -0.11674881 0.08820804 -0.039779063 0.27352622 0.11919107
-0.1011966 -0.14984094 -0.09712748 0.07331107 -0.10588525 -0.0149834 -0.031067042 0.03574143
0.2165942 0.020983126 0.06977589 0.2873727 -0.05935202 0.24370593 0.0026960275 -0.05756837
0.025785027 0.0028844066 0.016233869 -0.43161163 -0.5875638 -0.018401954 0.34786707 0.03234622
-0.042136308 0.33534685 0.26896548 0.07770913 -0.12617981 -0.09271464 -0.093162335 -0.020956552
-0.008200455 -0.025626943 -0.027754314 -0.09523614 -0.06456742 0.009099166 0.27679268 -0.079391845
0.058754567 -0.13424619 0.035634045 -0.048601523 0.09315822 0.012420857 -0.021691894 -0.010087155
-0.09318261 0.9045541 0.10639045 -0.0514465 -0.08473221 0.23374686 0.15846044 0.21301806
00000000: f292 123c 68b7 94bd 9f52 473d 38d8 013f
00000010: 9256 28be 856b a4bd bfef 09bd d0eb 443a
00000020: b15f 4dbe 0f89 afbd c4ac 92be 2b02 123d
00000030: 127f 5fbc 7c87 5a3e 9757 8c3e 7f13 6b3e
00000040: 034a 0a3e 6189 00be 33af 813e f977 c13c
00000050: 4e24 94bd b015 1dbe ba85 9a3c 87d3 8d3c
00000060: 5b84 75bd b05f 4abc 2852 03bd 448b 993d
00000070: 8395 063e b011 a5bc 6a6b 8f3d e0b3 b4bd
00000080: 8b4e de3d 4696 223b ad43 89bc 564d d5bd
00000090: b0d6 f6bd adc2 a83d e77b 21be 643f f13d
000000a0: 029b b5bd ec79 ef3d 1708 0c3e 6f7e 53bd
000000b0: 8389 4c3c 2497 ce3d 7239 473e 4237 8b3e
000000c0: add5 833c 8ca2 a63e f7a4 893c fb01 b63d
000000d0: aac1 da3d f3e0 cfbd 903e 4e3d 787d 153e
000000e0: b697 543d 545b a23d abe0 903d 78fd e63d
000000f0: 17a5 883d 97e1 e1bd bae0 833d 70c3 233e
00000100: 70e4 d7bc ee69 89bd 515d d2bd 7cc8 f23d
00000110: 68d2 ea3d 44c2 fc3d 46aa e63d 62e6 8ebd
00000120: a8f7 55be 0bab 573d 70ab 6a3d 9a32 b4be
00000130: 598f 1dbe 44bc 22be 5623 893c 8115 e03d
00000140: a390 a93e 08e3 8bbd 3208 643e fb62 2dbc
00000150: 1521 bc3e 6020 cabd 8b45 9e3d 6c0c 4bbd
00000160: 3fc4 ecbe a544 2cbd 65fb 80be 9925 89be
00000170: bc95 1ebf 1d00 97bd 79b7 0cbe b3b5 9cbd
00000180: fe7c ba3e 845c ea3e 6258 253e ea0e 513e
00000190: 36f5 563d 9c97 9a3e 540a e2bd 886a 43bd
000001a0: 8743 a0bd 5ff3 9d3c 8744 833d 4de9 ed3d
000001b0: 28bf bfbd 3633 fcbd 162f f13d 8d8e e73e
000001c0: 313e 0abe a8b3 073e a53a 4fbe fcb4 e03e
000001d0: 59c3 393e 4748 05bc 6e51 233d 0257 d3b9
000001e0: 2bd1 36be ac78 dc3e 99cb 8f3b 2586 95bd
000001f0: b0b5 393d 8b46 2ebe 4343 8b3d 189c 923c
00000200: c0c9 1e3e a3a8 c73d 0adf d53b 3338 aebd
00000210: fc6d 163e 46a1 22be d955 8ebd 947f 8b3d
00000220: 30f9 073e e535 8d3d a37a 2abd 771e 15be
00000230: ad6f 94ba 1213 34bc ea0b a93d df21 8ebd
00000240: ecb2 a63d 97ce 90bd ba43 fabd 5d63 ad3b
00000250: 353a 00be 5671 76bd 9d2e 1f3d 5619 a2bd
00000260: a4c8 8e3d e9d8 07be 6741 ca3d fdc7 d53d
00000270: 1653 503e 71ec 10be 9633 b4bd 4931 93bd
00000280: dd98 1e3d 5fd7 1cbd 70ec e3bd 128d b8bd
00000290: 2e2e 32be 378c 26ba a1ec f3bd ffd2 ccbd
000002a0: 01d2 0d3e ecc3 10be 94ed 2abd 87cc b9bb
000002b0: a663 ff3d 714b 13bc 5dba 343c 384d ce3c
000002c0: 92ad e63c 8b46 9cbd 6d67 823d f4ef 46be
000002d0: 9ad1 98bb 74db ac3d 9a50 22be 616b 4d3e
000002e0: dee9 1a3e 0a4d a03d 8213 2abd 989b f73d
000002f0: 9333 703b 5678 c43d e545 95bd b4cb 343c
00000300: e6f2 c3bd f8dc ca3c 1119 b13c 001a efbd
00000310: 6ba6 b43d 5fef 22bd a10b 8c3e 731a f43d
00000320: 2a40 cfbd e76f 19be c6ea c6bd 1d24 963d
00000330: 5eda d8bd ef7c 75bc 4f80 febc 9b65 123d
00000340: dfca 5d3e cee4 ab3c a9e6 8e3d 8422 933e
00000350: 1b1b 73bd 0c8e 793e d6af 303b d0cc 6bbd
00000360: 1f3b d33c 5008 3d3b e4fc 843c 33fc dcbe
00000370: 956a 16bf b2bf 96bc a21b b23e 787d 043d
00000380: 1f97 2cbd 95b2 ab3e d8b5 893e f725 9f3d
00000390: 4835 01be 2ce1 bdbd e5cb bebd 13ad abbc
000003a0: 345b 06bc 98ef d1bc 045d e3bc 2a0b c3bd
000003b0: ec3b 84bd ab14 153c c5b7 8d3e 3198 a2bd
000003c0: a1a8 703d d577 09be 01f5 113d 6412 47bd
000003d0: bdc9 be3d da80 4b3c 33b3 b1bc 9844 25bc
000003e0: 86d6 bebd dc90 673f 3ce3 d93d 91b9 52bd
000003f0: 1588 adbd 565b 6f3e 7443 223e 6821 5a3e

fc1.bias f4 [128]
-0.008056311 0.17270792 -0.084364615 -0.091303535 -0.07385909 -0.28107318 -0.020654391 -0.17264354
0.038577992 -0.032092184 0.0027495273 0.055244535 -0.16629705 -0.044024415 0.07542422 -0.40877303
0.1159181 0.03410574 -0.08576303 -0.052814096 -0.01915557 -0.036565863 0.037020303 -0.28065586
0.14405453 0.23424286 0.04146075 -0.0013666905 -0.034045 0.35598633 -0.14167553 -0.045717917
-0.0548865 0.0197376 -0.09131067 -0.07415631 -0.12945674 0.15703374 -0.17022456 -0.15327063
0.003705273 0.35915464 0.084403716 -0.033776682 -0.1825294 -0.16480355 0.021965284 -0.008865989
0.16083558 0.07584971 0.025805457 0.16016527 -0.10458841 0.009326909 0.1383473 -0.17839622
-0.05096862 -0.03505666 -0.05168348 0.17111954 0.109625936 0.11907522 -0.06919928 -0.10513363
0.12250648 0.03290368 -0.3443001 0.07597978 -0.20466252 -0.33574954 -0.020788718 0.14619535
-0.13601431 -0.10857969 0.024088364 -0.089834385 0.02618602 -0.11206783 -0.1477362 0.11081024
0.02416711 0.124903046 -0.392673 0.22554748 -0.07149605 0.17718488 -0.09843039 0.03253919
-0.09422461 -0.079478815 -0.008015448 0.02373841 0.09148188 0.027292065 -0.11624297 0.13901384
0.22427534 -0.15947458 -0.0011953049 -0.28651965 0.23184058 0.10972312 -0.11428525 -0.01743038
0.019109318 0.094167426 0.043698136 0.059184883 -0.029201375 -0.2630403 -0.08568613 0.11621813
-0.09716191 0.16954415 0.08567663 0.0140964845 -0.11832818 -0.024977947 0.015484102 -0.1339021
-0.119212046 0.14105836 0.012215185 0.09015428 0.07911899 0.032575224 -0.095786 -0.15596814
00000000: 9efe 03bc 58da 303e 5bc7 acbd 59fd babd
00000010: 6f43 97bd d3e8 8fbe 6633 a9bc 78c9 30be
00000020: f503 1e3d 1873 03bd 6a31 343b 1848 623d
00000030: c649 2abe f252 34bd 0378 9a3d b34a d1be
00000040: 7866 ed3d 76b2 0b3d 87a4 afbd 9853 58bd
00000050: 24ec 9cbc 16c6 15bd 9aa2 173d 20b2 8fbe
00000060: 0883 133e 5cdd 6f3e bfd2 293d 8622 b3ba
00000070: c572 0bbd d743 b63e 6413 11be b642 3bbd
00000080: abd0 60bd bfb0 a13c 1701 bbbd 43df 97bd
00000090: 4f90 04be 74cd 203e 594f 2ebe faf2 1cbe
000000a0: 2ad4 723b 1ee3 b73e dbdb ac3d 6b59 0abd
000000b0: fde8 3abe 43c2 28be 8af0 b33c a742 11bc
000000c0: 15b2 243e 1857 9b3d f765 d33c 5d02 243e
000000d0: 7332 d6bd e4cf 183c eaaa 0d3e 80ad 36be
000000e0: 79c4 50bd 9397 0fbd 0fb2 53bd f639 2f3e
000000f0: 9083 e03d b5dd f33d 5ab8 8dbd 4d50 d7bd
00000100: ade4 fa3d 02c6 063d 1a48 b0be 499b 9b3d
00000110: 0d93 51be 5de7 abbe 1a4d aabc 3cb4 153e
00000120: 5647 0bbe 075f debd f654 c53c 17fb b7bd
00000130: 1084 d63c d283 e5bd 2948 17be 7bf0 e23d
00000140: 1afa c53c 2bcd ff3d 6f0c c9be ebf5 663e
00000150: 856c 92bd f46f 353e df95 c9bd d047 053d
00000160: d5f8 c0bd cac5 a2bd 3a53 03bc 0e77 c23c
00000170: da5a bb3d 9c93 df3c cb10 eebd a559 0e3e
00000180: 6fa8 653e 4e4d 23be c7ab 9cba b4b2 92be
00000190: 9e67 6d3e 84b6 e03d 630e eabd 28ca 8ebc
000001a0: 258b 9c3c dada c03d d1fc 323d d96b 723d
000001b0: b937 efbc 38ad 86be 367c afbd c503 ee3d
000001c0: d3fc c6bd fb9c 2d3e 3b77 af3d f1f4 663c
000001d0: 0b56 f2bd 8d9e ccbc 08b1 7d3c a21d 09be
000001e0: 7225 f4bd 9a71 103e 3322 483c cfa2 b83d
000001f0: 2309 a23d 996d 053d 732b c4bd 1db6 1fbe

fc2.weight f4 [128, 128]
-0.0033733721 0.097966895 -0.11905729 -0.0078980345 -0.0052810656 -0.036077797 0.0054680347 -0.06442135
0.022588957 -0.05924676 0.008845796 -0.016696144 -0.02574241 -0.06709201 0.034192093 -0.09989482
-0.062130827 0.003482741 0.057529937 -0.13339575 -0.052946605 0.048243042 -0.04816532 0.031833068
-0.05203204 -0.0023125818 0.08869809 0.046494305 0.043226905 -0.051723506 -0.07614311 0.060618687
-0.019683536 0.04346844 0.011839424 -0.093315125 0.09817428 -0.012001551 0.07432771 0.05828654
-0.10091301 0.08111503 -0.023370177 -0.097339585 -0.03833962 -0.04267387 0.04922536 0.13115108
-0.13238895 0.055222053 -0.029813731 0.07856147 0.07521832 -0.026608068 0.06102536 0.023917189
-0.023262385 -0.11270835 0.08303173 0.09652613 0.072506234 0.029279327 0.094348796 0.030587919
0.11076913 0.0006328103 -0.04966534 -0.09434748 0.0077396133 0.04709882 -0.10527309 0.016835425
0.04445417 -0.0020258168 -0.0037635197 0.0773041 -0.020604247 -0.123063765 0.0012141125 -0.036978953
0.03390898 0.118202545 -0.06010022 0.05134316 -0.04230045 -0.058332916 -0.024997363 -0.013142051
-0.03447404 0.031115033 -0.14449555 -0.015264152 0.08996591 0.013957676 -0.041835584 0.069318116
0.10666444 0.016620167 -0.10389446 -0.14067626 0.04105536 -0.05368507 0.070672385 -0.017714921
-0.0775281 0.037758827 0.06020742 -0.014025019 0.10428806 0.020972002 -0.029240873 -0.00088850735
-0.0029088093 -0.0083342735 -0.08877563 -0.08177413 0.07396438 -0.07960265 -0.04265411 0.056446705
-0.080495246 0.033941884 -0.041846905 -0.028639108 -0.080602914 0.09792189 0.05214731 0.0006664359
-0.1517431 -0.013930887 -0.2242001 0.075613685 0.018276813 0.042293485 -0.104961164 0.112947434
-0.069922514 -0.04246727 -0.071608596 -0.019877188 -0.029788475 -0.09522075 -0.11970095 -0.042266876
-0.07756823 0.06247954 0.0002047421 -0.043368444 0.0025712794 0.00505255 0.023664793 0.12949882
0.050699145 0.039263967 0.06771088 0.07614696 -0.029574377 0.050940882 -0.15794748 -0.01938453
0.035395764 -0.02941134 0.016021654 -0.10891448 0.11880807 -0.018191045 0.13196778 -0.11035551
-0.07365118 -0.008834423 -0.0017374883 -0.03328197 -0.08666614 -0.04109453 0.0733005 0.04890613
-0.018713344 -0.0033994894 0.095466524 -0.0158028 -0.065676056 0.14419876 0.05123985 0.055522844
-0.02644673 -0.0088888705 0.056334935 -0.033275016 0.03995947 0.07121866 0.008029858 -0.054153867
0.027754953 -0.097963534 -0.15287171 -0.038751327 0.034123488 0.018427964 -0.06285858 -0.06435565
0.06259984 -0.0042610373 -0.037186693 0.093187146 0.0338901 -0.044386968 0.033203565 0.033080857
0.1055354 0.07586397 -0.064697675 0.09158174 -0.104614876 0.0787909 -0.027856015 -0.017054608
-0.00072319084 0.08481663 -0.12531605 -0.02446724 0.024805143 0.019644845 -0.009465859 0.029630514
0.008406333 0.08449262 -0.060475264 -0.18332231 -0.06780192 0.07276623 0.053393025 -0.07723289
0.04993163 -0.12473188 -0.035078786 -0.018466182 0.009345237 0.04920036 0.07265065 0.11624557
-0.050515857 0.01985244 0.011905104 -0.0013535398 0.04472246 0.092781775 0.047738854 0.11407447
-0.052214067 0.1047218 -0.05070176 -0.14220248 -0.03498203 -0.10692192 0.088258475 0.04631864
00000000: cb13 5dbb dea2 c83d 4fd4 f3bd c266 01bc
00000010: ca0c adbb 50c6 13bd 332d b33b 57ef 83bd
00000020: 7a0c b93c bbac 72bd f5ed 103c 5ac6 88bc
00000030: bfe1 d2bc 8967 89bd 020d 0c3d a895 ccbd
00000040: e57c 7ebd b33e 643b 83a4 6b3d e598 08be
00000050: 8ade 58bd 7f9a 453d 0049 45bd 6463 023d
00000060: 8c1f 55bd af8e 17bb 58a7 b53d d070 3e3d
00000070: b20e 313d 07dc 53bd ebf0 9bbd 4d4b 783d
00000080: 5e3f a1bc f70b 323d 25fa 413c 001c bfbd
00000090: 990f c93d 27a2 44bc 2039 983d debd 6e3d
000000a0: 7bab cebd a31f a63d d072 bfbc fa59 c7bd
000000b0: 010a 1dbd ccca 2ebd 88a0 493d 784c 063e
000000c0: f890 07be 8530 623d ed3b f4bc d6e4 a03d
000000d0: 100c 9a3d 2af9 d9bc baf5 793d fbed c33c
000000e0: c290 bebc a3d3 e6bd 8a0c aa3d 7eaf c53d
000000f0: 267e 943d 33db ef3c f139 c13d 8493 fa3c
00000100: edda e23d 2ee3 253a e26d 4bbd 4039 c1bd
00000110: 959c fd3b b1ea 403d 6b99 d7bd 72ea 893c
00000120: 9315 363d 91c3 04bb 62a5 76bb 9d51 9e3d
00000130: 3dca a8bc db08 fcbd db22 9f3a 3e77 17bd
00000140: 25e4 0a3d 2d14 f23d a62b 76bd 354d 523d
00000150: 3d43 2dbd 7fee 6ebd 45c7 ccbc c251 57bc
00000160: a734 0dbd f4e4 fe3c a4f6 13be 7e16 7abc
00000170: 0c40 b83d bcae 643c ca5b 2bbd a8f6 8d3d
00000180: e372 da3d 0427 883c 9ec6 d4bd 700d 10be
00000190: aa29 283d e0e4 5bbd afbc 903d e21e 91bc
000001a0: 0dc7 9ebd 00a9 1a3d 0e9c 763d 31c9 65bc
000001b0: fa94 d53d 7acd ab3c 8e8a efbc b8ea 68ba
000001c0: b9a1 3ebb 7a8c 08bc ffcf b5bd 3279 a7bd
000001d0: a37a 973d b706 a3bd 13b6 2ebd a934 673d
000001e0: b1da a4bd a506 0b3d a967 2bbd 909c eabc
000001f0: 2413 a5bd 468b c83d 6b98 553d c2b3 2e3a
00000200: 8b62 1bbe 603e 64bc b694 65be 59db 9a3d
00000210: 41b9 953c ef3b 2d3d e1f5 d6bd fc50 e73d
00000220: 8933 8fbd 29f2 2dbd 87a7 92bd 7cd5 a2bc
00000230: f606 f4bc 1903 c3bd c625 f5bd 0820 2dbd
00000240: 18dc 9ebd 8cea 7f3d 0ab0 5639 1ca3 31bd
00000250: e982 283b dd8f a53b abdc c13c 579b 043e
00000260: e8a9 4f3d 41d3 203d 00ac 8a3d f0f2 9b3d
00000270: f745 f2bc 63a7 503d fcbc 21be 4ecc 9ebc
00000280: 26fb 103d 0df0 f0bc d83f 833c 8e0e dfbd
00000290: a551 f33d 6305 95bc 9022 073e 1202 e2bd
000002a0: 6ed6 96bd 41be 10bc 6fbc e3ba ad52 08bd
000002b0: 047e b1bd bd52 28bd 931e 963d cb51 483d
000002c0: ba4c 99bc f8c9 5ebb f483 c33d e074 81bc
000002d0: 2b81 86bd d7a8 133e e1e0 513d ec6b 633d
000002e0: d0a6 d8bc a0a2 11bc 76bf 663d 624b 08bd
000002f0: 8bac 233d 17db 913d aa8f 033c 72d0 5dbd
00000300: 5b5e e33c 1ba1 c8bd 678a 1cbe b6b9 1ebd
00000310: 12c5 0b3d 3ef6 963c 00bc 80bd e5cc 83bd
00000320: 5834 803d 2ca0 8bbb 1351 18bd e7d8 be3d
00000330: 58d0 0a3d 1ccf 35bd 7600 083d cb7f 073d
00000340: f222 d83d 925e 9b3d 3780 84bd 358f bb3d
00000350: 5340 d6bd 205d a13d 4c32 e4bc 1bb6 8bbc
00000360: 8494 3dba 57b4 ad3d da52 00be 856f c8bc
00000370: 2834 cb3c 3aee a03c b116 1bbc b1bb f23c
00000380: b7ba 093c 770a ad3d e9b4 77bd d8b8 3bbe
00000390: bcdb 8abd 7606 953d a5b2 5a3d 472c 9ebd
000003a0: 1c85 4c3d 6e73 ffbd c6ae 0fbd 6446 97bc
000003b0: c41c 193c 5186 493d ddc9 943d 2812 ee3d
000003c0: b7e9 4ebd 96a1 a23c a00d 433c 4269 b1ba
000003d0: e62e 373d 5f04 be3d d189 433d e09f e93d
000003e0: 6bde 55bd 6278 d63d a6ac 4fbd 879d 11be
000003f0: 5149 0fbd e1f9 dabd dcc0 b43d 9db8 3d3d

fc2.bias f4 [128]
0.14128642 0.09169799 0.19560169 0.051818326 0.046051938 0.11637534 0.06895476 0.16513611
-0.005956025 0.05727642 0.015543928 0.09650285 -0.0010562787 -0.06663565 -0.015439056 0.015779877
0.12524845 -0.020613862 0.09489517 0.07728004 -0.0077349343 0.045099404 0.030952994 -0.07112014
0.062210504 0.078772195 0.041848242 0.019832496 0.07939862 0.07465295 0.01833849 0.0047240867
0.010071679 0.043902382 0.1251615 0.10882083 -0.09528479 0.0892258 0.08664097 0.102563664
0.080185786 -0.05610067 0.10305203 -0.030652696 -0.03871796 0.18626659 -0.0877683 0.08590483
0.08105593 -0.009022355 0.09026939 0.0011919872 0.09520118 -0.07447574 0.003551431 0.10428888
0.16632767 0.084037706 -0.06833227 0.048797585 0.20154786 -0.039649 0.045244567 -0.03043852
-0.019358305 -0.04717129 0.110387184 -0.017694097 0.14433786 0.09516248 0.09823458 0.1111568
0.034720916 0.10915571 0.14187993 0.033751857 0.0010309136 0.17399281 0.034303874 -0.07541048
-0.022879211 -0.03877829 0.05822658 -0.034221087 -0.054985996 0.02564036 -0.049807027 -0.009188614
0.12782414 0.016626637 -0.068444 -0.028152566 0.0043628137 0.037568405 0.033361677 -0.030592833
0.06914686 0.004695422 0.034608267 0.13511825 -0.027081575 -0.077371284 0.004297602 0.011776419
0.05070468 -0.06908381 -0.03881953 0.088687405 0.079923406 0.15207362 0.06501381 0.001255833
0.06723194 0.06591793 0.029998403 -0.020544624 -0.015221548 0.07348976 -0.061785907 -0.0183699
0.13991657 -0.07254942 0.09970674 0.1450151 -0.049397796 -0.044133622 -0.07863759 0.09133491
00000000: 63ad 103e 28cc bb3d cf4b 483e 743f 543d
00000010: f5a0 3c3d 3256 ee3d 2738 8d3d 7119 293e
00000020: c22a c3bb ae9a 6a3d f6ab 7e3c 49a3 c53d
00000030: d572 8aba 4678 88bd 18f4 7cbc cd44 813c
00000040: 2141 003e 67de a8bc 6658 c23d ff44 9e3d
00000050: 5575 fdbb 27ba 383d 2291 fd3c 70a7 91bd
00000060: 71d0 7e3d 5153 a13d 1069 2b3d c277 a23c
00000070: be9b a23d a5e3 983d 9a3a 963c 83cc 9a3b
00000080: af03 253c fcd2 333d 562a 003e 75dd de3d
00000090: ac24 c3bd 04bc b63d d270 b13d e60c d23d
000000a0: 7238 a43d d1c9 65bd f10c d33d 5d1b fbbc
000000b0: b996 1ebd abbc 3e3e debf b3bd dfee af3d
000000c0: a700 a63d 80d2 13bc 28df b83d 743c 9c3a
000000d0: d6f8 c23d bd86 98bd 20bf 683b 6995 d53d
000000e0: cd51 2a3e f61b ac3d caf1 8bbd fadf 473d
000000f0: 9062 4e3e fd66 22bd 5e52 393d 345a f9bc
00000100: 4f95 9ebc af36 41bd ad12 e23d 36f3 90bc
00000110: 4ecd 133e 8ce4 c23d 362f c93d 2da6 e33d
00000120: 8537 0e3d 078d df3d f948 113e 633f 0a3d
00000130: b81f 873a 2c2b 323e 3882 0c3d cf70 9abd
00000140: 2f6d bbbc fcd5 1ebd ff7e 6e3d 692b 0cbd
00000150: ff38 61bd bb0b d23c 7402 4cbd d78b 16bc
00000160: 55e4 023e 9634 883c 5e2c 8cbd 36a0 e6bc
00000170: eff5 8e3b 54e1 193d 41a6 083d d29d fabc
00000180: de9c 8d3d 0edc 993b 66c1 0d3d 705c 0a3e
00000190: 2eda ddbc d674 9ebd e6d2 8c3b e2f1 403c
000001a0: b6af 4f3d d07b 8dbd 3a01 1fbd bea1 b53d
000001b0: e2ae a33d 30b9 1b3e f625 853d c39a a43a
000001c0: e6b0 893d fbff 863d 36bf f53c 334d a8bc
000001d0: cd63 79bc cd81 963d 3813 7dbd 797c 96bc
000001e0: 4a46 0f3e ca94 94bd 0c33 cc3d d77e 143e
000001f0: 5855 4abd 75c5 34bd bf0c a1bd cc0d bb3d

fc3.weight f4 [1, 128]
0.40552247 0.54960114 -0.71164834 -0.15820721 0.43353766 0.37623802 0.0686981 1.092444
-0.27061707 0.47393236 0.09393889 -0.3004084 -0.07382058 0.10257237 0.2818509 -0.084149554
-0.43896842 0.05069832 0.20124082 -0.35995546 0.08625586 0.030494938 -0.32521388 -0.17713812
-0.069808066 -0.64012265 -0.35083696 -0.33641136 0.18455465 0.27285922 0.24719162 -0.093501434
-0.42172626 0.053731542 0.36676395 -0.49557647 0.017291008 0.07238283 -0.7745909 -0.60053813
0.3536511 0.10765778 0.4729934 -0.15636608 0.038166806 0.74822044 0.13899355 0.2711539
-0.7814959 -0.037588052 0.2538708 -0.2893776 -0.7390778 0.1992936 -0.038707037 0.75640196
0.73139393 0.3834775 0.11002812 0.2624722 1.3536139 -0.25314707 0.3103556 0.098106675
0.009514622 -0.28480893 1.014157 0.24891733 0.71200895 -1.3924294 -0.9461735 0.431773
0.24559008 0.35508993 0.40145963 0.10706688 -0.13224868 1.6678207 -0.007555552 -0.0021085667
-0.42645466 0.04597139 0.39416483 0.0898323 -0.006765664 -0.49363726 -0.21039873 0.17589235
1.1306221 0.37089455 0.009711101 0.0336563 -0.405972 -0.059086215 0.040513795 -0.10060914
-0.2850326 -0.47027937 -0.37818488 0.28690913 -0.11337788 -0.1407669 0.21401036 0.05001652
-0.29963773 -0.39768043 0.1971115 0.17722367 -0.50603914 -0.27503636 0.12304455 -0.5087308
0.31160876 -0.09381963 -0.30037564 -0.018479727 -0.0567571 0.27835038 -0.026273115 0.14405137
0.40243784 -0.000937223 1.1693321 -1.2976505 0.07642752 -0.20699416 -0.008247468 0.31462693
00000000: a4a0 cf3e a9b2 0c3f 962e 36bf 1201 22be
00000010: a6f8 dd3e 45a2 c03e 97b1 8c3d 34d5 8b3f
00000020: 528e 8abe 43a7 f23e 0863 c03d 21cf 99be
00000030: 3f2f 97bd 7611 d23d c34e 903e 9a56 acbd
00000040: 78c0 e0be 0ba9 4f3d 1312 4e3e 154c b8be
00000050: eaa6 b03d 85d0 f93c 6f82 a6be b263 35be
00000060: 88f7 8ebd 14df 23bf e7a0 b3be 1c3e acbe
00000070: e5fb 3c3e 34b4 8b3e cd1f 7d3e ae7d bfbd
00000080: 81ec d7be 9b15 5c3d 7cc8 bb3e 33bc fdbe
00000090: dfa5 8d3c 733d 943d 974b 46bf debc 19bf
000000a0: c211 b53e af7b dc3d 312c f23e 6e1e 20be
000000b0: cc54 1c3d 608b 3f3f 5354 0e3e afd4 8a3e
000000c0: 1e10 48bf eef5 19bd 5afb 813e 4d29 94be
000000d0: 3434 3dbf 9f13 4c3e 458b 1ebd 8fa3 413f
000000e0: a23c 3b3f 2a57 c43e 6c56 e13d c262 863e
000000f0: 3843 ad3f 7e9c 81be eee6 9e3e 27ec c83d
00000100: 38e3 1b3c 7ad2 91be e6cf 813f 2fe4 7e3e
00000110: 3846 363f 203b b2bf 6d38 72bf 5a11 dd3e
00000120: f77b 7b3e 59ce b53e 1e8c cd3e e145 db3d
00000130: 336c 07be 267b d53f 9094 f7bb e12f 0abb
00000140: 4458 dabe 7f4c 3c3d f9cf c93e fff9 b73d
00000150: 81b2 ddbb 06be fcbe c472 57be 201d 343e
00000160: 3ab8 903f e4e5 bd3e 4f1b 1f3c 30db 093d
00000170: 90db cfbe 6304 72bd cbf1 253d 2a0c cebd
00000180: cbef 91be 75c8 f0be 73a1 c1be c1e5 923e
00000190: a932 e8bd 3325 10be 8825 5b3e 1fde 4c3d
000001a0: 1e6a 99be c59c cbbe 99d7 493e 1f7a 353e
000001b0: c88b 01bf 91d1 8cbe c8fe fb3d 2f3c 02bf
000001c0: 2f8b 9f3e 8224 c0bd d6ca 99be cc62 97bc
000001d0: 227a 68bd f183 8e3e b73a d7bc 3482 133e
000001e0: 550c ce3e f9af 75ba adac 953f 6919 a6bf
000001f0: 0886 9c3d 47f6 53be 6320 07bc c816 a13e
