prototype_2/data/fedavg_model.pt (torch, 840587 bytes, 21 tensors)

weight f4 [512, 39]
00000000: 28f2 353d 8627 433c ea91 35ba a026 af3d
00000010: d4d7 b03d 7fb3 563d 2cc6 103d 602d aa3c
00000020: 89be 373d 4a7d 43bc 9d27 a43c 9c8a b0bd
00000030: da3d c5bc 0baa 933c ec58 173d 592b 44bd
00000040: df70 5bbd 5073 8b3d 8fb7 913c 364a fa3c
00000050: ca47 8b3d c378 dc3d aa00 acbd f275 cb3b
00000060: 143d c23d 44a8 93bd 9c41 133e 5a92 0cbd
00000070: 1e9d d73b 82ff 0a3d 1c26 d63d 9645 903d
00000080: 0a60 4cbc 25ea 79bd 6f49 9a3b 51b2 1f3d
00000090: d510 193d 08b4 2bbd 3f7b cf3c 4e90 c03d
000000a0: ee39 94bc ec5e 183c 3d3c 843d 7247 053b
000000b0: acd1 473d 1178 a13d c333 1dbd d6ce e43b
000000c0: 6fc5 ebba 736f 2bbb dabe 14bc 1124 3a3d
000000d0: 7ab7 21bd 0ee9 2ebd 4c13 613d a417 833d
000000e0: 69f6 6d3b 2e8f 32bd ee69 843d 7db4 973c
000000f0: f1c3 5fbc b50b fabb 46c6 5d3d 3384 e73d
00000100: 7f32 e83b 4a8c a93d be24 dd3c 5f6a f33d
00000110: 978c a13c 16a5 98bd 7ed6 e1bb 06b7 c2bb
00000120: 4652 b8bc f40f 79bd c303 98bd 00f8 c6bc
00000130: 6abe aebd 8e1e 53bd 9718 8e3d 6c2c 8fbc
00000140: bc7a 2e3b 7f55 973c 2892 263c 05fa 843d
00000150: 644b 0e3d 96ed 50bc 5c61 f23c 3b02 9d3b
00000160: 7ad0 953c d9a0 8e3d 6f7a fbbc 12d5 933c
00000170: 638f 99bd ec92 13bd 84e3 a33d 8bcb 683d
00000180: 4c1c 3b3c 8648 593d 7887 c13d bd29 ad3d
00000190: ac5f 2d3d ef9f ab3b 1e16 dd3c 4a50 d43d
000001a0: 2ef4 21bd 7fd2 aebc 7c84 3f3b 688e 9a3c
000001b0: 5cd6 92bc 0947 55bd e4cf 07bd bb4a adbc
000001c0: 94a0 443d fe53 393c b41d 083d 6b17 6dbd
000001d0: a916 9b3c 23f3 583d ad3c 10bd 0514 8e3c
000001e0: 772d 433d f77d 1c3b 3c27 66bd 4ca4 dbbb
000001f0: 20e7 153b 504c 7b3d 2647 25bc f012 a23d
00000200: 9600 4dba 020c 83bd 027c 63bd a17f 513c
00000210: cc23 df3c c19a 103d ae95 d8bc f84d a0bc
00000220: 8744 0d3d 7a9c ac3c 2711 893d c258 e33d
00000230: 8a1e 693c 7211 6bba 148b 3a3d 5961 fdbc
00000240: 5580 17bd e282 4a3a 7900 833d fe37 8a3c
00000250: 96d3 eb3c 1e4b b13d e2ad 33bc ea3a 763c
00000260: 1635 953d d460 443d 7d58 babd 78f1 3e3d
00000270: 7030 f53c a8a0 423d 20e2 e43c 1619 5abd
00000280: 580d a1bd bd8c 98bd 5223 11bd 276c 79bd
00000290: 1826 823d bcf9 883d 07e4 143d c32b 193c
000002a0: 2042 23bd 6008 a4bc ea7d 69bc 443d eebb
000002b0: 04b3 2dbb 8de7 6e3c 28c3 86bd 5b3b 763c
000002c0: 2c73 ff39 ea76 18bc bfff 10bd d495 babc
000002d0: 7c78 623d 0547 30bd 6e89 bb3b 1cd3 fd3d
000002e0: 2490 193d 924b 883d 6e96 d93c 4ad9 673d
000002f0: e452 11bc d5fb 14bb 5acc 083d 4b92 303d
00000300: 3208 013c 2de9 06bd e6de 36bc dc9c fabc
00000310: 3a6d 203c 2fdc 523d aa74 c13d 12f4 26bb
00000320: 005d 97bd 9800 453d a46b 5bbd 688e b83b
00000330: 0077 473d 821d e03d 1196 64bd 28fd 83bc
00000340: f852 643b 72a7 703d 0cab dc3c 2b37 cc3d
00000350: 2076 f3bc 0402 9ebc 50f9 bc3c b7f6 06bd
00000360: 3804 323d 31e3 a93b 0962 95bd e201 0c3d
00000370: bb26 a8bd 9ebf 5a3d 373d b0bb db6e 86bc
00000380: 0c67 db3b d24e f9bd 5c21 cb3d ca92 233c
00000390: 688f d6bc 4fe9 83bd 6ec5 d0bc ea7b 703d
000003a0: b1ae 96bd 433c 873d c7b5 1cbd 3c35 58bd
000003b0: 9361 c1bc 5c91 823d 08d7 c0bc 62f8 f6bc
000003c0: 155a f33c c437 38bb bc97 1aba 4c51 1bbd
000003d0: 4c21 563d 8bb2 633c dacf 3fbd d13c 62bd
000003e0: 9e92 c83d 983b 49bd 222f ba3d b0e9 51bc
000003f0: 1a1b 0b3d 0d7c 5bbd 2899 5bbd 12b2 a13d
0.04442039 0.011911279 -0.0006926345 0.08552289 0.08634916 0.052417275 0.03534524 0.02077359
0.044859443 -0.011931727 0.02003842 -0.08620188 -0.024077345 0.018025419 0.036950037 -0.047892902
-0.05357444 0.068091035 0.017787723 0.030552965 0.06800802 0.10765221 -0.08398564 0.0062091285
0.09484306 -0.072098285 0.14380497 -0.03431926 0.006580009 0.033935077 0.104564875 0.070445225
-0.012474069 -0.061014313 0.004708461 0.038988415 0.037369568 -0.041919738 0.025327323 0.09402524
-0.01809403 0.009299975 0.06456802 0.0020336774 0.048783943 0.07884229 -0.038379442 0.0069826646
-0.0017987917 -0.0026158958 -0.009078706 0.04544455 -0.039481618 -0.042702727 0.054950044 0.064009935
0.0036310202 -0.043593578 0.06465517 0.01851868 -0.013657556 -0.00763079 0.054144166 0.11304512
0.0070860977 0.08278711 0.02699506 0.11885523 0.019720359 -0.07453363 -0.0068920245 -0.0059422283
-0.022500169 -0.06080623 -0.074225925 -0.024288177 -0.08532412 -0.05154281 0.06938284 -0.017477237
0.0026623448 0.018473385 0.010166682 0.06493 0.034739867 -0.012751957 0.02958744 0.0047915257
0.018287886 0.06964273 -0.03069803 0.018045936 -0.07498052 -0.036028787 0.080023795 0.05683474
0.011420321 0.05304768 0.09449667 0.084552266 0.042327568 0.0052375714 0.026988085 0.103668764
-0.03953951 -0.021340607 0.0029223254 0.018866733 -0.01792448 -0.052069698 -0.033157244 -0.021153798
0.0480047 0.011311529 0.033231452 -0.05788366 0.018931704 0.05296625 -0.035214115 0.01734353
0.04765078 0.0023878792 -0.05618976 -0.0067029353 0.0022873357 0.061352074 -0.010087764 0.07913768
-0.00078202167 -0.06398775 -0.055538185 0.012786777 0.027238749 0.035303835 -0.02643856 -0.019568428
0.03448918 0.021070708 0.06692725 0.111009136 0.0142284725 -0.0008967138 0.04554279 -0.030930208
-0.03698762 0.00077251915 0.063965745 0.016872402 0.028787415 0.086569056 -0.01096675 0.015028695
0.07285516 0.047943905 -0.09098909 0.046617 0.029930323 0.047516495 0.027939856 -0.05324658
-0.07863873 -0.07448719 -0.035434075 -0.060894158 0.06354922 0.06688258 0.036350276 0.0093488125
-0.039857984 -0.020023525 -0.014251212 -0.007270487 -0.0026504407 0.014581573 -0.06580192 0.0150288
0.000487232 -0.009305695 -0.03540015 -0.022776522 0.055290684 -0.04303648 0.00572317 0.123937815
0.03749098 0.06655039 0.026560988 0.056603707 -0.00886986 -0.0022733111 0.03339801 0.043108266
0.007875489 -0.032937218 -0.011161542 -0.030592375 0.009791667 0.051479515 0.0944608 -0.0025475067
-0.07390785 0.04809627 -0.05356945 0.0056322105 0.04869747 0.10943128 -0.055807177 -0.016111925
0.0034839492 0.05875344 0.02693703 0.0997146 -0.029719412 -0.01928807 0.0230681 -0.03295013
0.043461055 0.005184554 -0.07294089 0.034181483 -0.08210512 0.053405397 -0.005378391 -0.016410282
0.0066956338 -0.12173237 0.09918472 0.009983728 -0.026191428 -0.064409845 -0.025484767 0.058711924
-0.073575385 0.06603291 -0.038259294 -0.052785143 -0.023606097 0.06375381 -0.023540035 -0.030147735
0.02970604 -0.002810941 -0.0005897244 -0.037919328 0.052277848 0.013897548 -0.046829082 -0.05523378
0.0979359 -0.0491291 0.09091021 -0.012812063 0.033961393 -0.0535851 -0.053612858 0.07895292

bias f4 [512]
00000000: f6ad 63bc ae4a 8e3c ebd6 2d3c f48f fabb
00000010: a185 9a3b 0576 a73a 525f 633c 57ff 6e3a
00000020: 72a9 b73b eca7 a83b d559 323c 4fb9 703b
00000030: 98b2 ac3b b49d 063c 1481 823b f3e8 2b3c
00000040: 7d7d 1c3c eac1 823b 168b fe3b 02d2 8e3c
00000050: faf8 7c3c 02a9 7c3c b855 513b 86aa a03b
00000060: 3692 1b3b 3df1 f53a 10a7 f13a d7c6 293b
00000070: 75cb b23b c0ae 0a3c 16ad 22bb d379 6dba
00000080: b6b4 bb3a 0f69 c9bb ba67 f939 7642 c43b
00000090: c865 543c 0cb2 9fbb edc9 5dbb 6843 043c
000000a0: 6fc9 073c afc3 dc3a 96bf 21bc 3ad0 033c
000000b0: 82ac 8f3b fc36 823b 9cd6 f8bb 4734 9e39
000000c0: 6e9e 0f3c 08e4 da3b 9913 943c 65f7 1b3c
000000d0: 08b5 de3b 54e5 91bb a671 dd3b 2e01 ce3b
000000e0: ada8 af3b 70fb 4ebb 30f9 e23b 151a 293b
000000f0: 6f93 20ba 644b 8838 60e2 d23b ab4c 133a
00000100: 3066 033c 8afe 073c 8c80 173c 45fb 333c
00000110: 12a5 563c 43bd a43b eebc 313c a50e e63b
00000120: 5606 70bb ae91 ff3a 2590 80bb 4ca7 f03b
00000130: 9ac3 003c d8dd 45ba 1e27 bf3b 2849 b0ba
00000140: a0cd c03b 5cf6 91bb e4c3 53bb 6974 dd3a
00000150: a90c 053c a1dc 853c e6f8 b539 45b4 a1ba
00000160: 5a12 433c 4e8e 103c 586e 1239 8060 5ab6
00000170: 92c7 ba3c e201 753b 33cc 13bb 5350 6fba
00000180: 43ea 8a3c d0cb 963b e8fb 523c aa01 023c
00000190: 3486 443c dc74 87bb fc03 ad3b 17fe 38bb
000001a0: 8e02 413c 13fd 353c 32bd 0e3c 441a ca3c
000001b0: ae53 293c 7148 ba3b 316e 943b 29e4 023c
000001c0: 4e13 143c 745e 153c 1a9e 173c ccf8 1b3c
000001d0: 3a51 0d3b c46d 013c ca46 7b3c a03f 783c
000001e0: a363 a13b 49ba 873a e5ec 4dbb b864 083b
000001f0: 2e6b eb3b 03a5 0f3c c9f0 fa3b 6471 263c
00000200: e491 e73b d20b 3d3c 1c21 603b 8692 3cbb
00000210: 7a6b 6b3c df0b 7e3b 12b1 94ba 0cb9 1e3c
00000220: ded9 123c bcbe a53c 744e 8cbb 9fe2 b73b
00000230: 1a84 893c 55d3 923b 0cbd ee3b 266d da3b
00000240: 7c1e db3a e828 d4ba 81d1 fb3b f212 693c
00000250: 8c91 453b 04ce 693b c090 df3b 384b 02bb
00000260: 309e 513c 1915 df3b 32b8 573b d000 893c
00000270: f8d3 963c d29d 993b dc63 c53b 4e19 0c3b
00000280: eb21 773a 7cfd d03b 9441 613c ba01 653a
00000290: fc7f 993b 2d79 1bba 20a9 9d3b 40a4 c23b
000002a0: 858b 84ba 6424 a33b baa1 4d3c cbfa b23c
000002b0: 5898 b33c ce28 bd3b 2272 8d3c 5bf8 323c
000002c0: 97bc 15bc f801 e13b 48aa 283c 905b b0bb
000002d0: 233b fa3a a343 973c 55fa f5bb 48c9 803b
000002e0: 76e4 dd3b 66a5 143c ece0 f0ba 9e0d cf3b
000002f0: 6ed6 623b a67a eebb 9cfc 763c a690 bb3a
00000300: 98e7 cb39 6850 073c befa 903c cd74 163b
00000310: 99f1 86bb 291e ec3b 4d7c 873b d34f 223c
00000320: d8ec 143c d608 3ebc cabf a53c 94c7 b83b
00000330: b60b 443c f4cf 533b a2b2 283b 3ea2 693c
00000340: 8235 29bb 4a68 543c 6a8e 793c fc39 0039
00000350: 948b 353b 2ebd bc3b 077c 5d3c d6ee 7d3b
00000360: 0159 013c 02cc 033c 6aca 233b 3e56 153c
00000370: 9806 3ebb c25d 0c3b ef99 4e3c 50c6 943c
00000380: e41b 2d3c 8469 123c cdf3 a73b e009 b73c
00000390: 2ec1 863b 401a 3c3b 04fe 0d3b 1872 2d3b
000003a0: 021a c13b a07a c337 01da 6b3c 5f77 583c
000003b0: e667 b3b9 7090 973b 22a6 213c 8829 c93b
000003c0: 0c33 e1ba 6eac a03b 4a11 5cbb 2b3c 213c
000003d0: 0263 483c 1ea6 973b 18b2 103b fa25 943b
000003e0: 9077 533c 38aa a6b9 5c60 d53b 0ff6 1d3c
000003f0: c44d 023c 6ad6 52ba 00a8 483c b202 683b
-0.013896456 0.017369594 0.0106103225 -0.007646555 0.004715637 0.0012776261 0.013877707 0.0009117028
0.0056049163 0.005146971 0.010885675 0.0036731546 0.0052703135 0.00821631 0.0039826725 0.010492551
0.009551403 0.0039904015 0.007768045 0.017434124 0.01544022 0.015421154 0.0031941961 0.0049031405
0.0023738272 0.0018763911 0.0018436629 0.0025905871 0.005456383 0.008464515 -0.0024822406 -0.0009058986
0.0014320824 -0.006146557 0.00047570263 0.005989368 0.01296372 -0.0048735198 -0.003384228 0.0080727115
0.008287772 0.0016842986 -0.009872338 0.008045251 0.004384578 0.00397384 -0.007593943 0.00030175058
0.0087658 0.0066800155 0.018075751 0.009519433 0.006796483 -0.004452387 0.0067579327 0.0062867617
0.005360684 -0.0031582974 0.006926678 0.00258029 -0.0006125485 6.499028e-05 0.0064356774 0.00056190294
0.008019969 0.008300433 0.009246957 0.0109852 0.013100879 0.0050274446 0.010848267 0.0070207887
-0.003662487 0.0019498372 -0.0039234334 0.007344162 0.007859135 -0.0007548011 0.0058335206 -0.0013449537
0.0058838874 -0.004454417 -0.0032312805 0.0016895655 0.008120694 0.016340556 0.00034708454 -0.001233705
0.011906231 0.008822991 0.00013964751 -3.2540702e-06 0.02280024 0.0037385155 -0.0022552132 -0.00091290957
0.016957408 0.004601933 0.012877442 0.007934967 0.011994887 -0.004133804 0.005280016 -0.0028227621
0.011780394 0.011107701 0.0087121 0.024670728 0.010334892 0.005684905 0.0045297374 0.007988968
0.009037806 0.009116758 0.009254003 0.009519767 0.0021563307 0.007899705 0.015336702 0.015151888
0.0049252077 0.00103552 -0.0031421718 0.0020811986 0.0071844077 0.008767369 0.0076580984 0.01015887
0.007066952 0.011538463 0.0034199422 -0.0028773858 0.014368886 0.00387644 -0.0011344275 0.009687673
0.008963076 0.02023255 -0.0042818133 0.005611732 0.016786624 0.004480759 0.0072857197 0.0066658435
0.0016717459 -0.0016186507 0.007684887 0.014225708 0.0030146567 0.0035675773 0.0068226755 -0.001988126
0.0127940625 0.006807935 0.0032916185 0.01672402 0.018411621 0.004688003 0.006023867 0.0021377387
0.00094273564 0.006377874 0.013748545 0.0008735914 0.0046844464 -0.00059308374 0.004811421 0.0059399903
-0.0010112381 0.0049787033 0.012550766 0.021848103 0.02192323 0.0057726866 0.017266337 0.01092347
-0.009139202 0.00686669 0.010294504 -0.005382009 0.001909111 0.018464869 -0.0075066485 0.0039302446
0.0067716194 0.009072637 -0.0018377579 0.006318762 0.0034612673 -0.0072778044 0.015074875 0.0014310076
0.00038891728 0.008258916 0.017697688 0.0022957802 -0.004118156 0.007205744 0.004134691 0.009906727
0.009089671 -0.011598786 0.020233054 0.005639026 0.011965683 0.0032319995 0.002574124 0.014259873
-0.0025819247 0.012964318 0.015231708 0.00012228632 0.0027701603 0.0057598567 0.01351834 0.0038747094
0.007894755 0.008044245 0.0024992474 0.0091148 -0.002899563 0.0021418189 0.012609943 0.018160969
0.010565732 0.00893629 0.005125499 0.022343576 0.0041123843 0.002870217 0.0021666298 0.002646571
0.005892993 2.3302913e-05 0.014395238 0.013212054 -0.0003421895 0.0046253726 0.009866269 0.006138984
-0.0017181351 0.0049033677 -0.003357964 0.009841005 0.012230637 0.004627957 0.0022078808 0.0045211287
0.012906924 -0.0003178881 0.006511731 0.0096411845 0.007953111 -0.00080428144 0.012247086 0.0035401997

weight f4 [512]
00000000: e4f9 3b3f cefd 413f 5797 413f d85d 433f
00000010: a772 403f 805f 403f 3dec 4f3f d687 483f
00000020: ffa0 443f 0089 413f 5cc3 513f 4355 4d3f
00000030: 6c70 3e3f 16b9 593f 96c5 473f 88f9 3e3f
00000040: fc7d 433f b228 4a3f 4312 483f 70d5 3f3f
00000050: f928 413f 07e8 3d3f 6a34 3e3f 4948 473f
00000060: bbd9 3f3f b18a 3e3f ffa8 3e3f 32a3 413f
00000070: 2b3e 433f 8e99 3e3f caba 3d3f 1a37 3f3f
00000080: 5f19 3a3f c1f2 453f 1829 443f 9f1b 3c3f
00000090: 4a15 3f3f 7216 3d3f 647c 3e3f 54b5 3f3f
000000a0: 74af 3b3f 4a52 423f 64c6 393f bcf7 453f
000000b0: c68d 3f3f 02e0 4d3f 9018 393f 3418 3d3f
000000c0: 524a 3c3f 1a83 423f 5a90 413f 0523 3f3f
000000d0: d1b4 3b3f f231 413f fe76 3e3f d363 413f
000000e0: c4ab 3d3f aa94 423f 02f8 3c3f dabc 3a3f
000000f0: 88a2 413f a2a8 463f 9dc2 433f 5805 433f
00000100: 3dab 4f3f a857 3e3f 1c19 3c3f 6aab 3e3f
00000110: ae83 443f 56d1 3a3f 9e71 423f 1257 413f
00000120: 65c6 3f3f c722 423f 480c 473f 98bd 3d3f
00000130: 91dd 3f3f 7074 3e3f 5f5c 433f fd4b 453f
00000140: be8b 3c3f a8c2 3d3f d9f4 3a3f 7a57 453f
00000150: ba51 4b3f 3b36 453f 0d50 413f 1f53 3b3f
00000160: 1afc 413f 4b5c 3c3f 4e01 3b3f 7e68 493f
00000170: af29 443f ff59 3a3f bbbe 3d3f afc7 3f3f
00000180: 5da9 433f a039 413f b8a8 423f 194a 3c3f
00000190: 8289 4c3f 03b4 3c3f b08e 473f 49bc 3c3f
000001a0: f438 403f 8c55 443f bf9c 3a3f 03b1 4e3f
000001b0: 2161 463f fa2e 3d3f 900e 3d3f c079 3d3f
000001c0: 2891 423f 3665 4a3f f22f 493f f209 433f
000001d0: a4a3 4d3f bcf2 3e3f a0a6 483f 9cd9 513f
000001e0: 5418 3d3f a6f9 403f acc3 463f 21c4 3d3f
000001f0: 22a0 3d3f d1f8 3e3f 4ebe 4a3f b582 463f
00000200: a80f 3f3f 5b8c 443f 358f 403f f1b9 463f
00000210: 3443 493f c160 463f 08bc 413f ead7 4a3f
00000220: 5e18 453f 38f3 453f 1023 413f 15e5 4e3f
00000230: c039 443f 02f3 433f 94f5 443f 7bd6 3e3f
00000240: 90a9 3e3f eb45 3e3f e44a 3c3f 8070 423f
00000250: b6e3 3e3f 6665 403f a02e 423f 2a2a 3d3f
00000260: 3ebd 3f3f 845e 413f 3293 433f 4314 403f
00000270: f62a 443f c8f8 413f 6a22 3c3f e60f 423f
00000280: 5888 413f 2696 423f 7d0d 443f ce38 3e3f
00000290: bfdf 453f b6ee 3f3f fc29 413f aa91 463f
000002a0: 71c2 3b3f fc0e 413f 586d 493f 80a8 443f
000002b0: 2db8 453f 2c75 463f 35e7 4b3f 9f6c 3d3f
000002c0: 040c 3a3f b449 483f 8e76 3c3f 0009 3b3f
000002d0: 92e6 3e3f 86f7 413f 1a9f 483f 1a60 3b3f
000002e0: b81f 503f fec1 453f 4b1a 3f3f 1b5d 3e3f
000002f0: e038 3b3f ae73 413f fc12 423f e476 443f
00000300: bdb9 503f c447 3e3f 3aae 403f 38be 383f
00000310: 22a4 3a3f 98dd 3b3f 0728 3f3f 4564 453f
00000320: 9d1b 3b3f e4f5 3a3f 42e6 4b3f fb00 3f3f
00000330: 4e3f 3f3f c361 473f 7f79 453f 5479 403f
00000340: 9b19 3e3f de4c 4b3f be9d 433f c812 3f3f
00000350: e7ba 3b3f 3382 433f 962a 3d3f 8ab3 3f3f
00000360: ee23 3b3f 59bb 3e3f e469 4b3f 3a71 3d3f
00000370: 1bbc 3e3f 911d 3d3f ad29 453f 1875 3f3f
00000380: c787 3f3f 926e 3d3f 3552 3f3f 9b9d 473f
00000390: ff6c 433f e683 473f a1ba 453f 092a 483f
000003a0: 941c 453f d5d9 413f 9dee 463f 4535 463f
000003b0: cf2d 3c3f e651 3f3f 5816 483f 8d71 3b3f
000003c0: 3801 3e3f f218 453f 30cc 3c3f c5b0 4b3f
000003d0: fdf3 473f 0b15 423f 283d 3f3f 6027 3e3f
000003e0: 1db3 413f 0f38 423f 69f1 443f 6423 443f
000003f0: 8c32 423f ec96 3e3f 4783 3e3f e23f 3d3f
0.7342818 0.757779 0.7562155 0.7631507 0.75174946 0.7514572 0.81219846 0.7833227
0.7680816 0.7559967 0.8193872 0.80208224 0.7439029 0.85048044 0.7803587 0.74599504
0.7636411 0.78968346 0.78152865 0.74935055 0.75453144 0.7418217 0.7429873 0.77844673
0.74941605 0.74430376 0.7447662 0.7563964 0.76266736 0.74453056 0.7411314 0.74693453
0.72694963 0.7732354 0.76625204 0.73479646 0.7464186 0.73862374 0.74408555 0.7488606
0.73314595 0.75906813 0.72568345 0.7733114 0.74825704 0.80419934 0.72303104 0.73865056
0.73550904 0.75981295 0.7561089 0.7466281 0.7332278 0.75466835 0.7440032 0.75542945
0.7409022 0.76008093 0.7381593 0.72944415 0.7563863 0.77601063 0.7646883 0.7618003
0.81120664 0.743525 0.73475814 0.7448031 0.7676343 0.7297567 0.75954616 0.75523484
0.749121 0.75834316 0.77753115 0.7411742 0.7494746 0.7439642 0.7631282 0.77069074
0.7365073 0.74125147 0.7302986 0.77086604 0.7942158 0.77035874 0.7551277 0.7317371
0.757753 0.7357833 0.73048866 0.7867507 0.76626104 0.72793573 0.74119157 0.7491407
0.764303 0.75478554 0.76038694 0.73550564 0.7989732 0.73712176 0.779521 0.737248
0.75086904 0.76693034 0.72895426 0.8073885 0.77491957 0.73899806 0.73850346 0.740139
0.7600274 0.79060686 0.78588784 0.7618705 0.8032782 0.74589133 0.7837925 0.8197267
0.73865247 0.75380933 0.7764232 0.74127394 0.7407247 0.74598414 0.7919663 0.77543193
0.74633265 0.76776665 0.75218517 0.77627474 0.7861817 0.77491385 0.7567754 0.7923571
0.76990306 0.7732425 0.75444126 0.808183 0.7665062 0.76542675 0.7693722 0.7454602
0.7447748 0.74325436 0.73551774 0.7595291 0.7456621 0.7515472 0.75852394 0.7389246
0.74898136 0.75534844 0.7639648 0.75030917 0.76628053 0.75770235 0.7349001 0.7580551
0.7559867 0.7601036 0.7658308 0.7430543 0.77294534 0.7497362 0.7545469 0.77566016
0.7334357 0.7541349 0.7868247 0.7681961 0.77234155 0.7752254 0.7964967 0.7399387
0.72674584 0.7823746 0.736184 0.7306061 0.7457057 0.75768316 0.7836777 0.73193514
0.812984 0.77249134 0.74649495 0.7436082 0.7313366 0.7556714 0.7581022 0.7674391
0.81533414 0.74328256 0.7526585 0.7216525 0.72906697 0.73385 0.7467045 0.77106124
0.7308901 0.7303145 0.7964822 0.7461087 0.7470597 0.7788355 0.77138513 0.7518513
0.7425782 0.79414165 0.7641257 0.7463803 0.73332065 0.76370543 0.73893106 0.7488333
0.731017 0.7450462 0.7945845 0.74000895 0.74505776 0.7387324 0.7701672 0.74788046
0.74816555 0.7399684 0.7473481 0.7797486 0.7633819 0.77935636 0.772379 0.7818914
0.7699673 0.7572301 0.77707845 0.7742503 0.735074 0.7473434 0.78159094 0.7322014
0.7422061 0.7699119 0.73749065 0.79566604 0.7810667 0.7581336 0.7470269 0.7427883
0.7566393 0.7586679 0.7693086 0.766165 0.7585838 0.7444904 0.74419063 0.739256

bias f4 [512]
00000000: ff48 89bc 12f8 913a 646d 90bc ddf6 86bc
00000010: c739 96bc 0c4e b5bb 1240 bebb 0075 33bc
00000020: 300f 7c3b fd5b 23bc 3ce9 5a3b 535f d7bb
00000030: 6942 25bc 4504 5dbb 8c74 803b 985a 3cbc
00000040: 9b4a 6fbc 9792 823a 7b3c 0cbc 14c7 b5bc
00000050: 1e2f 61bc 7809 bcbc f426 d7bb e6b1 91b9
00000060: 3a27 98bb 2205 4abc f60a 0dbc 7021 ae3a
00000070: 541b 95bb dd83 8fbc cf7e 16bc c8f8 8ebc
00000080: e7b8 7cbb 8fe2 7cbb 26f7 283b 5a72 40bc
00000090: f30b 523b e018 20bc f7a9 36bc 6196 edba
000000a0: 5803 5bbc e71f a2bb 8950 93bc fe6a 89bb
000000b0: 2617 583a ccf3 d03a 364d 86bc c9ec 82bc
000000c0: fe7f 51bc 13b3 4039 ee30 c2ba 5c24 e7bb
000000d0: ba29 ebbb f2bc c7bb a695 76bb 76b0 aabc
000000e0: 81b7 6cbb 9b71 96bb 44dd e3bb 2eb5 90bc
000000f0: 6dfa 20bc 6537 f1bb 4094 b3bc ce81 51bc
00000100: 8022 683b 081b 52bc dfe7 37bc 829e 10bc
00000110: b6f7 84bb 1508 07ba 90aa a6bb abc5 5fbc
00000120: 3cf5 2ebc bc03 8eba 45ac 86bb 3a83 14bc
00000130: bab6 33bc 7de7 12bc f304 5eba 3a0d ba3a
00000140: 6a18 debb 7639 07bc 82dc 73bc 673c c73a
00000150: a62c 44bc 7b59 dabb 7f21 a5bb a485 89bc
00000160: a906 2fbc 800b bbbc f8e5 4ebc f660 12ba
00000170: 6c96 02bc b6cd 91bc 74cb e3bb fe92 f4bb
00000180: 742c 56bb e6dc 42bb 7167 4ebc b305 ebbb
00000190: 4096 03bc f3b5 22bc 4646 bfbb 79a7 30bc
000001a0: e4c7 503c 9420 1bbc 13d9 74bc a02b b63b
000001b0: ed81 25bc c147 5dbb 2829 38bc 2eea 4ebc
000001c0: 4295 20bc 0828 1d3c bf3e 6bba 5686 00bc
000001d0: a8d6 d83b 3022 76bc 3282 cb3b 4c38 713b
000001e0: cefc aabc 0ca4 0cbc baf3 65bb f69e f1bc
000001f0: 8bd2 f0ba 849b 92bc ecc2 0139 947e 0bbc
00000200: d4d8 27bc 3a83 f7bb f2bf c5bb db5c 23bc
00000210: 9692 e0bb c223 3b3a 853e d0bb 655f 0a3c
00000220: 88f1 65bc eb45 a53b 594d 01bc 7a4f f1bb
00000230: 8a25 96bb afac d5bb 95c2 14bc 10ba f0ba
00000240: 12d1 45bc 7d31 7abc 3064 b1bc d2a0 d2bb
00000250: ac78 e2bb 4622 1bbc b296 ccbb 9699 c7bb
00000260: 22ff afbb b2b0 88bb d7af 07bc 7cc2 babc
00000270: e0c1 723b b4af 1abc c096 d5bb 9f50 52bc
00000280: 1b76 15bc 2dd2 77bc 9acd 16bc 1811 1abc
00000290: 7e1e b03b 4cbd 2dbc 8c02 84bb 003e 9a3a
000002a0: 6a8b 52bc ccf2 99bb 520a 17bc 1ac7 31bb
000002b0: 2a53 7a3b 0a0f beba 345a ac3c 105c a2bc
000002c0: 4a0d 7cbc 7492 91bc c517 91bc 5eb4 52bc
000002d0: 9821 36bc 4b02 d7bb a4fa 12bc 9efc 31bc
000002e0: b497 ba3b 58be 7cbb 4664 a1bb 19cc a2bb
000002f0: 018c e8bb 6649 fc3a c0dd 7bbc 8cd4 b63b
00000300: 54ef 58bc 2fcc 9cbb cbf1 04bc 5696 a8bc
00000310: 1e8a 56bc 684c 36bc fcbf b9bb e7b6 f0bb
00000320: c340 5dbc 8b3b 83bc 9efa 293c 2ebc 04bc
00000330: 1780 77bc 5641 3dbc 6ce5 d53a d4e7 31bb
00000340: 9020 53bc e3f7 993b 100e b5ba 9189 e8ba
00000350: 60ec b0bb 30aa 48bc 0a0a 89bb 30ab 2fbc
00000360: 8c4b 18bc de6e 89bc 07ca ce3a ae24 e1bb
00000370: 08b2 34bc ea97 74bc c87f 87bc 0a2c ddbb
00000380: 6e9f 71bc ff33 56bc 4819 4aba de3b 23bb
00000390: 9ef6 9bbb 8f27 fe3a b5be afbb 2aca f93b
000003a0: 2fd3 66ba 1438 8bbc a408 57bb a4f7 21bc
000003b0: 9052 5dbc 1286 b3bb 7038 64b8 9f78 84bc
000003c0: 5efd f4bb 93ea 16bc 7124 ecbb ca60 303c
000003d0: 9eb5 35bc e664 4ebb 1cd3 0ebb 6608 e6bb
000003e0: dd76 9cbc f431 f03a 3540 27bc 3bf1 68bc
000003f0: 12be 4fbb 3268 80bc 0799 10bc f811 8dbc
-0.01675844 0.0011136553 -0.017630287 -0.016475135 -0.018338097 -0.0055329856 -0.0058059776 -0.010953188
0.00384612 -0.009970662 0.0033403179 -0.006572643 -0.010086634 -0.0033724469 0.0039201435 -0.011496209
-0.01460519 0.00099619 -0.008559342 -0.022189654 -0.013744144 -0.022953734 -0.006565923 -0.000277891
-0.004643348 -0.012330325 -0.00860857 0.0013285112 -0.004550377 -0.017518932 -0.009185507 -0.017452613
-0.0038562359 -0.0038587188 0.0025782078 -0.011746014 0.003205058 -0.009771556 -0.011148921 -0.0018126481
-0.013367496 -0.0049476507 -0.017982738 -0.0041936627 0.00082431955 0.0015941798 -0.016394239 -0.015982049
-0.012786863 0.00018377257 -0.0014815608 -0.007053895 -0.007176605 -0.006095522 -0.0037625819 -0.020836096
-0.003612012 -0.0045911795 -0.006953867 -0.017664518 -0.009825331 -0.00736134 -0.021921277 -0.0127872955
0.0035420954 -0.012823828 -0.011224716 -0.008826854 -0.0040578498 -0.00051510456 -0.0050862506 -0.013657968
-0.010678586 -0.0010834853 -0.0041098916 -0.00906449 -0.010968858 -0.008966324 -0.00084693654 0.0014194616
-0.0067778127 -0.008253446 -0.014884116 0.0015200496 -0.011973536 -0.006663499 -0.0050393934 -0.016787358
-0.01068274 -0.022832632 -0.012628071 -0.00055839063 -0.007970434 -0.017798286 -0.0069517437 -0.007463812
-0.0032680305 -0.0029733717 -0.012597905 -0.0071723103 -0.008031428 -0.009931075 -0.0058372347 -0.010782116
0.01274297 -0.009468216 -0.014944333 0.0055593997 -0.0101017775 -0.0033764692 -0.011240281 -0.012629075
-0.009801211 0.009592064 -0.00089738885 -0.007844528 0.006617386 -0.015022799 0.006210589 0.0036807237
-0.0208725 -0.008584034 -0.00350879 -0.029494744 -0.0018373294 -0.017896421 0.00012375013 -0.008514065
-0.010244567 -0.007553485 -0.0060348446 -0.009970869 -0.006853412 0.0007138812 -0.006355109 0.008445595
-0.014034636 0.0050437353 -0.007891976 -0.0073642107 -0.0045821117 -0.0065208296 -0.009079595 -0.0018365998
-0.012073772 -0.015270588 -0.021654218 -0.0064278627 -0.006911358 -0.009468621 -0.00624355 -0.006091307
-0.0053709904 -0.0041714543 -0.00828167 -0.022797816 0.0037041828 -0.009441305 -0.006518215 -0.012836604
-0.009122397 -0.015125793 -0.009204293 -0.0094034895 0.0053747287 -0.010604214 -0.004028624 0.0011767745
-0.012850622 -0.004698133 -0.009218769 -0.002712673 0.0038196542 -0.0014500332 0.021039106 -0.01981929
-0.015384028 -0.01777003 -0.01771153 -0.012860386 -0.011116408 -0.0065615526 -0.00897089 -0.010863451
0.005694354 -0.0038565602 -0.0049252836 -0.004968178 -0.007096768 0.0019247949 -0.015372694 0.005579537
-0.013240654 -0.004785083 -0.008114289 -0.020579498 -0.013094453 -0.011126615 -0.0056686383 -0.0073460224
-0.01350421 -0.016019603 0.010374693 -0.008101506 -0.015106223 -0.011551222 0.0016318983 -0.0027146237
-0.0128861815 0.00469874 -0.0013813395 -0.0017741193 -0.005399272 -0.012247607 -0.004182105 -0.010721967
-0.0092953555 -0.016776498 0.0015776762 -0.0068708276 -0.011028774 -0.014928797 -0.016540423 -0.0067496346
-0.014747484 -0.01307392 -0.00077094557 -0.002490751 -0.0047596237 0.0019390451 -0.00536331 0.007622977
-0.00088052725 -0.016994514 -0.0032811547 -0.009885702 -0.013508454 -0.005478629 -5.4411998e-05 -0.016170798
-0.007476493 -0.0092112 -0.0072064926 0.010765264 -0.011090664 -0.0031493246 -0.0021793311 -0.007020044
-0.019099647 0.0018325434 -0.010208179 -0.01421767 -0.0031698984 -0.015674684 -0.008825547 -0.017220482

weight f4 [256, 512]
00000000: 22ef 46bd 5514 e73c e484 79bd ec37 d8bb
00000010: adc5 f63b 5fe1 ddbc 2eb3 8fbc 685f 633c
00000020: 582a 653d 363f 1ebd 84f0 9f3c da77 94bd
00000030: 83e1 c43c fe02 433c 83ba 523c 3e3a 2d3d
00000040: 58ef e4bc 42de 7f3c de0f 903d 66a2 573d
00000050: 9726 17bd a7ba f5bc 3c2d 453d e172 543d
00000060: 4fc7 f3bc c42a 8bbd 0453 553d e40d 113d
00000070: e463 0c3d 04fd 103d f8d7 613d 9e57 6c3d
00000080: 0abf 9a3c 5955 253d 8414 2c3d 3f6d 31bd
00000090: 040e 543d 7a45 51bd 8eac 493d a0af 823d
000000a0: 3e48 ddbc 3c18 943d 7e07 6ebd 05fb bf3c
000000b0: fafa 103d 2cba 3c3c d21c b13b 2866 d1bc
000000c0: 511f 7fbb 1976 853d 2677 91bc 1054 dcbb
000000d0: 0c1e afba 3b29 293d 96d0 1a3b 18e9 eebc
000000e0: 568c 59bd 7f22 4abd fb4f 7cbd d3a5 febc
000000f0: 71c5 af3c 3c62 103d 024e 803d 4b43 c63c
00000100: 423d 8e3d 26f2 6ebb 50d6 853c 8a16 85bc
00000110: ebde 593d 0373 c63c 9837 4cbd 8c66 733d
00000120: e586 833d b248 93bd d605 92bd d6c5 27bd
00000130: 2b07 6cbd 9072 923d ea15 433d 0614 c63c
00000140: 362b 983c aae7 6d3d a5ce 8dba b03e 193d
00000150: f875 303c b4b6 133d 545c 273c 4141 34bd
00000160: 3211 7abd 6a84 393c e898 133d 66ac 5e3d
00000170: cc6c eb3c 7484 e1bc d8d8 80bd 910f 7ebb
00000180: a6ba 273d 6405 d33c aff5 b63d e696 543d
00000190: 2394 4c3d 4a75 cdbc f247 933d 4e2f 193d
000001a0: aaff 663b f2a5 213c 21b4 e43a f5df 87bb
000001b0: 762c 0d3b ba3f ea3c b49b 89bd 664d d13b
000001c0: 1828 b13c 1656 563d db29 5bbc bb3e 53bd
000001d0: 2c0e ba3c 6ba2 27bc f107 1ebd d249 2dbd
000001e0: bcdc 82bd 5a54 e33c dc47 2a3d 9ced 01bd
000001f0: 336d 32bc 0004 873d 46de 95bb 5c56 4b3c
00000200: ce04 53bd 9ac6 923d c4e0 723d 50db ebbc
00000210: a2cc 70bd a68d b33c 40a2 223d 2a7f 58bc
00000220: e043 8abc 884e 673d 1a9c c4bc 3aa1 2cbd
00000230: dad8 82bd a8b2 cd3b 94bd adbc 4583 07bd
00000240: a271 4cbd 8827 83bd e457 4cbd f59d b23b
00000250: 9090 343d 5429 9e3d f681 813c 088b b3bc
00000260: b239 9b3c a73a 1fbd dc4d a83c 2a15 813d
00000270: 62a4 1ebb 8aa3 663d ce14 f7bc a572 243b
00000280: 0eb0 a73d 8af6 5dbc 6631 833d 8972 80bc
00000290: fd2f 65bd 4d6f 443d e690 613d c1b9 723d
000002a0: e437 023c 226f 1a3c 3a5e 86bc 472f 72bb
000002b0: e30e a3bc ac56 343d cf7f 6b3d fd1c 5f3d
000002c0: 628a 6cbd 6341 c43c 35cd d83c 405c 4dbc
000002d0: 9b24 953b 24cd 863c e6e8 be3d a939 c53c
000002e0: 2766 db3d 1c5a f83c 10e4 3bbd fa98 cc3b
000002f0: d851 033d e4c0 dcbb 0c0a 6fbd 9422 11bc
00000300: e9a7 acbd aa14 123d 6b30 5f3d 0cd4 35bd
00000310: 44e9 8ebb e844 853c c476 88bc 2810 9e3d
00000320: 84bd 96bc babf ef3c 8532 f8bc 5ee7 13bd
00000330: dcd7 6abd 8cf4 3abd 9107 bc3c e447 01bd
00000340: ac68 f3bb da30 85bc f003 843c 7ab3 df3b
00000350: ca5e 5bbd aec6 a13d ee98 d63c 4cbb 903d
00000360: 9553 13bd 29c5 a8bc 2b9f d3bb 9f4d febc
00000370: baeb 50bc b8c5 913c be57 ab3d 36c4 94bc
00000380: 1112 75bd b9ee 213d fe50 ac3d ce40 b83c
00000390: 680e 08bc 64d0 943c 1cb1 7a3c 36a3 59bd
000003a0: 1d1d 5aba 50eb 74bc d9b5 093d 8a71 d7bc
000003b0: f631 863c 8e90 223d 356f 51bd d858 4abd
000003c0: 12e7 0f3d c0b5 2ebd 3214 063c fd46 f3bc
000003d0: 84b3 4ebd 83ca dc3c 96d2 b43c ba9a 133d
000003e0: 3801 f13b 3b43 4fbd 46f3 493d 13c1 2c3d
000003f0: fad1 b3bc 611c 813d 4274 0fbd 8034 8abc
-0.0485679 0.028207937 -0.06091775 -0.0065984633 0.007530889 -0.027085004 -0.017541494 0.013877727
0.055948585 -0.0386345 0.019523866 -0.07249422 0.024033314 0.011902569 0.012861851 0.042291872
-0.02794616 0.015616955 0.070342764 0.05264511 -0.036902037 -0.02999623 0.048138842 0.05186737
-0.029758124 -0.06795266 0.052081123 0.035413638 0.03427495 0.035397545 0.055137604 0.057700746
0.018889923 0.040364597 0.042011753 -0.043317076 0.05177118 -0.05109165 0.049236827 0.06381154
-0.027011987 0.07231185 -0.058112614 0.023435125 0.0353956 0.011518996 0.005405047 -0.025561407
-0.0038928578 0.06516666 -0.01775701 -0.006723888 -0.0013360395 0.041299086 0.0023622862 -0.029163882
-0.05311235 -0.049349304 -0.061599713 -0.03108493 0.021456452 0.035249934 0.06264879 0.02420201
0.06945278 -0.003646025 0.016337544 -0.016246099 0.053191107 0.024224764 -0.049857706 0.05942397
0.064222135 -0.071916 -0.07130019 -0.040960155 -0.057624023 0.07150757 0.04762832 0.02417947
0.018575292 0.05808226 -0.0010819031 0.0374133 0.010770313 0.03606291 0.010214884 -0.044007543
-0.061051555 0.011323074 0.036034495 0.05436363 0.028738402 -0.027528979 -0.0629136 -0.0038766603
0.040949486 0.025759406 0.08933579 0.05190172 0.04994596 -0.025080342 0.07191457 0.03739863
0.0035247603 0.009866225 0.0017448702 -0.004146571 0.0021541393 0.02859484 -0.06719151 0.0063874004
0.021625564 0.05232819 -0.013376678 -0.051573496 0.022711836 -0.010231595 -0.038581792 -0.04230673
-0.06389758 0.027750183 0.041572437 -0.031720743 -0.010890293 0.0659256 -0.004573616 0.012410726
-0.051518254 0.071667865 0.059296384 -0.0287911 -0.058788903 0.02191813 0.039705515 -0.013213912
-0.016878068 0.056471378 -0.024000216 -0.042145945 -0.063890174 0.006277401 -0.021208562 -0.033084173
-0.049913056 -0.06404024 -0.049888507 0.005450959 0.044083178 0.077227265 0.01580904 -0.021916881
0.01894841 -0.038874295 0.020544939 0.06302865 -0.0024206867 0.056308307 -0.030161288 0.0025092748
0.08187877 -0.013547549 0.064059064 -0.015679615 -0.05595397 0.047957707 0.055069827 0.05925918
0.007947896 0.00942591 -0.016402353 -0.003695445 -0.01990456 0.04402797 0.057494935 0.054471005
-0.05774916 0.02395696 0.026465038 -0.012534201 0.004551483 0.01645524 0.093217656 0.024075346
0.107128434 0.030316405 -0.045871794 0.006243822 0.032060474 -0.0067368615 -0.05835919 -0.008858342
-0.08430464 0.035664238 0.054489534 -0.044391677 -0.0043613035 0.016268209 -0.016658194 0.07717925
-0.018400915 0.029266227 -0.030297527 -0.03610932 -0.057334766 -0.045643374 0.022952827 -0.0315627
-0.0074282493 -0.016258646 0.016115159 0.006826815 -0.053557195 0.07899223 0.02619597 0.07066974
-0.035968382 -0.020601826 -0.0064581833 -0.031042872 -0.012751514 0.017794475 0.08366345 -0.018159967
-0.059831683 0.039534304 0.084138855 0.022491839 -0.008304216 0.018165775 0.015301015 -0.053134166
-0.0008320378 -0.014948681 0.03362069 -0.026299257 0.016381245 0.03968864 -0.051131446 -0.049401134
0.035132475 -0.0426538 0.008183526 -0.029696936 -0.05046417 0.026952034 0.022073071 0.03603623
0.0073548816 -0.050601225 0.04930427 0.042176317 -0.02195071 0.06304241 -0.03502298 -0.016870737

bias f4 [256]
00000000: 3998 743b 02b5 a8ba 78c2 26bb e4f0 fa3b
00000010: 2d29 7b3a 98b9 2b3b 7cbc 393b 4a14 393c
00000020: ca3c 9d3b de79 b23b d07e 803a d20e fcbb
00000030: a5a6 0239 0e2b 083c b827 f3b9 094b 0e3b
00000040: 0a9e 7e3b fc6e 6639 7c24 773b afd6 923b
00000050: e652 6e3b a620 3e3b 722d bfba 767a 683b
00000060: 9545 683b 4e75 3c3a 18cd 51bb 2c85 e53b
00000070: c0c2 a4ba e008 893b 80fa f93a 73b8 a63b
00000080: 285e 8db9 be1b 043b e242 c4ba a545 5e3b
00000090: 34a3 a13b dadc 2a3b adbf 66ba 3c3a eb3a
000000a0: 42d1 edba ae24 b53b d891 5f3b 54f1 b83a
000000b0: edf5 55ba 540b a93a 0045 5838 1693 35bb
000000c0: 31d4 133b c555 e238 2147 a73b b820 a23a
000000d0: 5e3d 3d3b 6ee0 bfb9 3c4a edba d239 63ba
000000e0: 38fe 91ba fcee 983b 62d3 b23b e656 14b9
000000f0: 3b5f a63a a9b7 d6ba 3c7a 20bb 4fea ce3b
00000100: 6210 b53b 1fc7 fd3b ecab 9f3a 4c60 123b
00000110: 6770 dd3b ecca 8e3b 7d90 be3a 2236 58bb
00000120: 9b45 863b 9bf3 f0bb c666 4a3b 8227 4939
00000130: d2f3 573b b524 463a 2c76 273a ef3e a53b
00000140: 8605 2a3b 10ef 3b3b cffa 1f3b a662 54bb
00000150: 6843 f53b 6092 863b e412 d6ba ae28 9e3b
00000160: 7645 d53b 03f3 8cbb ce88 b93b a4b0 bdbb
00000170: a44c ff3b e7e1 263b 2ca6 083b 164e c23a
00000180: 0e6d b73a a2b2 133b 9c9c fa3a 708d 3eb9
00000190: fd6d 623b 4373 073a fb13 c13b b828 273b
000001a0: 2516 823b c494 12bb ecdc 65ba acc4 2c3b
000001b0: 526a a23a c6c4 2ebb ac29 ad3b 3cb9 ea3a
000001c0: 67ec 59b9 376f 623b fab6 fbb9 4679 533b
000001d0: deb3 a73b 6020 2fba a9f9 c33b 6771 803b
000001e0: c845 193c 4c8f abbb 314a 913b a905 563b
000001f0: fbf3 85ba dcd7 313b 38b6 20bb 7c65 953b
00000200: 793a a13b b069 813b 2864 aa3a 3b52 5dba
00000210: 3837 0fba 3cc0 c3ba 09e5 523b 9e0b aa3a
00000220: e016 3eb9 3c03 493b 041b b13a 9a94 073c
00000230: 497d f13a f1ed c7bb 78ef 1a3c 2720 bf3b
00000240: 6277 8538 f42d 453b 460b 25bb f0d1 b93b
00000250: 6240 a13b 540c dd39 4463 1e3c d38b 313b
00000260: 3593 ffb9 829d e3b9 0b60 723b f2a8 99ba
00000270: aca4 8cb8 35fd 4c3a 3e33 b7b9 9057 923b
00000280: c611 9e3b aa0d af3b b67c 413b c0c7 8e3b
00000290: f3e4 72ba 1b04 2a3b a997 6f39 26eb 8c3b
000002a0: 8f18 c33b 3701 473b 021c ef3b 9d3c 4b3a
000002b0: f514 033c 2013 b63a 33f8 3fba 6231 a9ba
000002c0: ca79 0f3c 3830 453b f73b c13a 026c 3b3a
000002d0: c65c 89bb 7279 683b 0318 173b 4654 9b3b
000002e0: a476 fa3a 68ee 7b3b 5ffc d33b 62a6 863b
000002f0: b3b5 143a 676e 6f3b c756 1a3c 1a02 853b
00000300: 056a eabb 4509 553a b42b 51bb 984e 14ba
00000310: 040d c3ba 9cfe 8dba a413 283c 7873 98b8
00000320: 0a56 083c 6436 a8b7 0ab0 16b9 a484 0e3b
00000330: b105 b43a 0e67 873b 95be 9c3b 422e 3fbb
00000340: ce37 02ba 4da2 1fba 7055 793b 2ee0 2bba
00000350: 5025 82ba 62e4 b2ba 06af c9bb e78f a43b
00000360: 05fe 253c 085d a4bb 6ab4 013c f852 4d3b
00000370: 8c87 a03b 2952 09ba 0819 4f3b 64c8 ac3b
00000380: 0756 e73a ebd2 e03b b22b e3bb abcb 843b
00000390: f2ba 403b c822 973b 5cd9 1f3b 3626 cc3b
000003a0: c2d4 713b cf1d ddbb 2070 5939 3755 0b39
000003b0: 94db 803b 98d3 193a 3e2b 9a3b 34e7 c63a
000003c0: f49a 133b d14d 543b 82ff 693b 2398 bf3a
000003d0: 7c3b 04bb e56b 18ba 855e 343b b443 8439
000003e0: 03ec a63b c354 b13b a66b 523b 043e 533b
000003f0: 53c7 243c 38dc 2b3a 88ff 2f3a 4ceb 273c
0.0037322177 -0.0012871327 -0.0025445502 0.007658111 0.0009581026 0.0026203152 0.0028341105 0.011296341
0.0047985064 0.0054466566 0.0009803418 -0.0076921964 0.00012459846 0.008311046 -0.00046378165 0.0021712205
0.0038851523 0.00021975854 0.0037710955 0.0044811587 0.003636533 0.002901116 -0.0014585687 0.0035473383
0.0035441865 0.00071891106 -0.0032013115 0.0070044007 -0.0012570247 0.004181966 0.0019071847 0.005087906
-0.00026963768 0.0020158137 -0.0014973546 0.0033916023 0.0049327854 0.002607158 -0.00088023656 0.0017946432
-0.0018144029 0.005528054 0.003411403 0.0014110007 -0.0008161951 0.0012897053 5.1562674e-05 -0.0027706078
0.0022556896 0.000107924956 0.005104915 0.001236937 0.002887569 -0.00036597572 -0.0018103789 -0.00086679787
-0.0011138385 0.004667161 0.0054573277 -0.00014146752 0.0012693176 -0.0016381639 -0.002448692 0.006314553
0.0055256346 0.0077446843 0.0012181974 0.002233523 0.006757784 0.0043576863 0.001453891 -0.003299125
0.004097653 -0.007353259 0.0030884012 0.00019183572 0.0032951725 0.00075585704 0.00063881534 0.0050429027
0.0025943234 0.0028676428 0.0024410968 -0.0032407432 0.007484842 0.0041068047 -0.0016332534 0.0048266267
0.0065085245 -0.00430143 0.0056620603 -0.0057888795 0.0077911187 0.0025464238 0.0020851 0.0014824297
0.0013994293 0.0022536893 0.001912016 -0.00018172502 0.0034550421 0.00051670166 0.0058922744 0.0025506448
0.003969925 -0.0022366503 -0.00087685767 0.0026362343 0.0012391305 -0.002666758 0.0052845087 0.0017907987
-0.000207828 0.0034551152 -0.0004801078 0.003226833 0.0051178774 -0.00066805445 0.0059806895 0.0039197686
0.009355016 -0.005235588 0.004433893 0.0032657182 -0.0010219807 0.002713672 -0.0024522673 0.004559217
0.0049203006 0.0039493665 0.001299982 -0.0008442734 -0.00054632453 -0.001493461 0.0032179973 0.0012973433
-0.00018128334 0.0030672094 0.001351208 0.0082751755 0.0018424179 -0.006101363 0.009456508 0.0058326903
6.364171e-05 0.0030087205 -0.0025183721 0.0056707785 0.004921005 0.0004216159 0.009667221 0.0027091398
-0.00048747068 -0.00043414166 0.0036983516 -0.0011723323 -6.706393e-05 0.0007819713 -0.00034942658 0.0044660047
0.004823896 0.005342205 0.0029523796 0.004357308 -0.00092656835 0.0025942388 0.00022849314 0.004300493
0.0059538553 0.0030365714 0.00729704 0.00077528675 0.008000602 0.0013891198 -0.00073230563 -0.0012908394
0.008757064 0.0030088555 0.0014742602 0.00071495783 -0.0041919677 0.0035472778 0.0023055084 0.004740271
0.0019108844 0.0038441662 0.006469294 0.00410919 0.0005672827 0.003653431 0.009420103 0.0040590884
-0.007153752 0.00081266864 -0.0031916918 -0.00056574633 -0.0014881198 -0.0010833326 0.010258589 -7.2694325e-05
0.008321295 -2.0052488e-05 -0.00014370694 0.002174654 0.0013734606 0.004132158 0.0047834613 -0.002917186
-0.0004967422 -0.00060895534 0.003804531 -0.00065565377 -0.0009929333 -0.0013648386 -0.0061548976 0.0050220373
0.010131364 -0.005015973 0.007916549 0.003132997 0.004898971 -0.0005238378 0.0031600613 0.005272912
0.001764954 0.006861081 -0.006932699 0.0040525994 0.0029408303 0.0046123005 0.002439103 0.006230141
0.0036900495 -0.006747938 0.00020736502 0.00013287818 0.0039324258 0.0005868017 0.004704862 0.0015175105
0.002252278 0.0032395015 0.0035705273 0.0014617484 -0.0020177057 -0.00058144174 0.0027522158 0.00025227445
0.0050940528 0.0054117157 0.003210762 0.003223301 0.010057288 0.00065559475 0.00067137973 0.01024897

weight f4 [256]
00000000: 9ad6 463f 1451 413f 0f15 3f3f 62d5 3f3f
00000010: c51f 463f f3d8 3e3f b5a0 3c3f 03b8 3f3f
00000020: e11e 413f 795a 403f 8acc 3c3f bef4 3b3f
00000030: 467d 403f 5fc0 3d3f 0618 443f 0c23 473f
00000040: 5ab0 453f 547c 403f 511b 473f f7be 423f
00000050: c03c 3e3f 488d 433f 9ec4 463f 12cb 3f3f
00000060: 304e 3f3f deaf 3e3f fd48 3c3f b423 3c3f
00000070: b65f 3e3f 6632 3e3f 998c 413f 67fc 453f
00000080: 6c56 433f 3083 3d3f f70a 3e3f d744 413f
00000090: 62d4 413f 385a 3d3f d838 3f3f defe 3e3f
000000a0: a52e 443f d826 3d3f 0765 3d3f 5e84 433f
000000b0: e25b 3c3f 19e7 3f3f 28f5 3d3f 3f97 3c3f
000000c0: 3009 3f3f f20c 413f d964 413f d45b 463f
000000d0: 7420 3e3f 176e 443f de4b 403f a874 3e3f
000000e0: 6cfd 423f 4e88 3d3f 8e1a 3e3f 9f2a 3e3f
000000f0: d007 403f 6d2b 423f fbbf 423f 872c 3b3f
00000100: 3a73 3d3f 51ca 3f3f 2a06 483f 1451 3b3f
00000110: 8adb 413f e4c9 413f 2cdd 3d3f 9c4d 3c3f
00000120: 1a51 403f 1727 3f3f acf6 433f 4838 403f
00000130: a800 3c3f a2b5 3d3f 3975 3e3f acc3 433f
00000140: db13 483f 400c 3c3f c820 3d3f 24ec 3b3f
00000150: 62b7 423f a437 3b3f 11c8 3f3f 72db 3c3f
00000160: f226 433f 0c60 3d3f daa0 483f a8c6 443f
00000170: b141 413f 982d 3e3f a45d 433f 8cfe 483f
00000180: 0485 3a3f f144 3e3f 3571 413f 6d94 3e3f
00000190: 9b4d 3c3f 501d 3b3f 4cb0 423f 6cff 403f
000001a0: 4c8b 3b3f 5c4e 453f 48af 3a3f 6083 413f
000001b0: 5ca0 403f 9487 3d3f 6520 413f 863f 3d3f
000001c0: 1587 3e3f f002 3f3f f2f3 453f 4620 403f
000001d0: e1b7 433f bf98 3e3f 90a6 3e3f 3858 3e3f
000001e0: 6b08 4d3f e693 403f bb23 3f3f c317 413f
000001f0: ee44 413f 2ee3 3e3f fea6 3f3f d65b 3a3f
00000200: 9224 433f 9a4e 413f 8694 433f 0de5 413f
00000210: 0148 3d3f 0093 3a3f 12a2 403f 3c8a 3d3f
00000220: 16e4 3c3f 8a0b 413f 2dc8 463f 47dc 3f3f
00000230: 6298 423f 7a6f 413f 58ce 443f 8b2e 433f
00000240: fbed 433f 656a 403f 6adb 453f 3482 3c3f
00000250: 9419 3f3f d279 433f 9dcc 3f3f ba8d 4a3f
00000260: e48a 3e3f 8ef2 3c3f 9a3d 413f 2c09 3f3f
00000270: ff17 3d3f 5d38 3b3f cc59 3d3f e710 443f
00000280: 01c8 3d3f 98d8 3c3f 71bd 413f 5cac 3b3f
00000290: de90 413f 7137 413f 58fd 423f a592 413f
000002a0: d2d4 3f3f 1e5a 403f 1c30 463f f267 3b3f
000002b0: 5e02 523f 3c7c 403f dc5e 3d3f 7b7e 3e3f
000002c0: 393e 473f 34cc 3e3f 9f9e 423f 8048 403f
000002d0: 464b 433f 990b 423f c53b 443f 283e 413f
000002e0: ce4a 3e3f c070 443f 0d98 3f3f b04b 443f
000002f0: 2422 3e3f 2a99 413f b233 433f a6a3 413f
00000300: b231 3c3f 9ca1 3d3f 7163 453f a8de 3c3f
00000310: e1ef 3f3f 4490 423f 06b6 3f3f 6ddd 3f3f
00000320: 8ae9 433f d680 413f 602c 413f 23a6 3e3f
00000330: 0ec8 403f 9673 3e3f 8e45 3f3f dadf 3c3f
00000340: edae 403f 9e5e 403f 09ab 3e3f 6aa9 3d3f
00000350: 7c1d 3f3f 8417 403f 1907 433f 68a3 403f
00000360: f861 453f 14ea 3d3f 36b1 423f 0c4a 3c3f
00000370: 063f 3e3f 447c 403f fab7 3c3f 26f7 3c3f
00000380: cadb 423f f5ff 403f dc4a 383f 9b43 443f
00000390: 30ab 3a3f ba24 3f3f 5ebd 3c3f ea43 3f3f
000003a0: c792 403f 968d 423f d058 3e3f e933 3f3f
000003b0: c88c 3f3f c9bd 423f de63 443f cb36 3c3f
000003c0: a69d 3f3f 5b77 3e3f e340 433f 7a5b 3f3f
000003d0: ca7a 433f 8f9e 413f 72c4 433f ca4b 3e3f
000003e0: 704c 3c3f 262c 453f 432d 413f 8c73 413f
000003f0: eecb 413f aea2 3d3f 3237 413f a668 423f
0.77671206 0.7551434 0.7464151 0.7493497 0.77392226 0.7454979 0.7368272 0.74890155
0.7543774 0.7513805 0.737496 0.7342032 0.7519115 0.7412166 0.76599157 0.7778785
0.77222216 0.7518971 0.77776057 0.7607264 0.7431145 0.76387453 0.77643764 0.74919236
0.7472868 0.744871 0.7354887 0.7349198 0.74364793 0.7429565 0.7560516 0.7733826
0.76303744 0.740283 0.7423548 0.75495666 0.75714695 0.7396579 0.7469611 0.74607646
0.76633674 0.73887396 0.7398228 0.7637385 0.735777 0.74962 0.74202204 0.73668283
0.74623394 0.7541038 0.75544506 0.7748387 0.7426827 0.76730484 0.75115764 0.74396753
0.7616794 0.7403611 0.7425927 0.74283785 0.7501192 0.7584751 0.7607419 0.7311482
0.74003947 0.74918085 0.78134406 0.7317059 0.75725615 0.75698686 0.74165606 0.7355592
0.7512375 0.7466902 0.76548266 0.7508588 0.734385 0.74105275 0.7439762 0.76470447
0.781553 0.7345619 0.73878145 0.73407197 0.7606107 0.73131776 0.7491465 0.73772347
0.762313 0.7397468 0.7837044 0.76865625 0.7549086 0.7428832 0.7631476 0.7851341
0.72859216 0.74323946 0.75563365 0.7444523 0.73555917 0.730916 0.7605026 0.7538974
0.73259425 0.7707269 0.7292371 0.7559109 0.7524469 0.74035 0.75440055 0.73925054
0.7442487 0.7461386 0.77325356 0.75049245 0.7645245 0.7445182 0.74472904 0.7435336
0.8009097 0.75225675 0.74663895 0.7542688 0.75495803 0.745654 0.74864185 0.7279638
0.76227677 0.7551056 0.76398504 0.7574013 0.73937994 0.72880554 0.752473 0.74039054
0.7378553 0.7540823 0.77649194 0.7494549 0.7601377 0.75560725 0.76877356 0.76242894
0.76535004 0.75162345 0.77287924 0.73636174 0.74648404 0.7635776 0.7492159 0.7912251
0.7443068 0.7380761 0.7548462 0.7462337 0.7386474 0.7313288 0.73965144 0.7658829
0.74133307 0.73767996 0.7567969 0.73309875 0.75611675 0.7547522 0.7616782 0.75614387
0.74934113 0.7513751 0.7741716 0.7320548 0.8203486 0.75189567 0.7397287 0.74411744
0.7782932 0.7453034 0.76023287 0.75110626 0.76286733 0.75798947 0.766537 0.7548547
0.7433289 0.7673454 0.74841386 0.7667799 0.74270844 0.75624335 0.76250756 0.7564033
0.7351333 0.7407472 0.7710486 0.73777246 0.749754 0.7600138 0.7488712 0.74947244
0.7652823 0.75587213 0.75458336 0.74472255 0.7530526 0.7439512 0.7471551 0.7377907
0.75266916 0.75144374 0.7447973 0.7408663 0.74654365 0.7503588 0.76182705 0.7524934
0.77102613 0.741853 0.7605165 0.73550487 0.74314916 0.75189614 0.73718226 0.7381462
0.7611662 0.7539056 0.71989226 0.7666566 0.7291746 0.74665415 0.7372645 0.74713004
0.75223964 0.75997293 0.7435427 0.74688584 0.7482419 0.7607084 0.76714885 0.7352111
0.7484993 0.7440087 0.76270884 0.7474896 0.76359236 0.75632566 0.76471627 0.74334395
0.73554134 0.7702049 0.7545969 0.75566936 0.75701797 0.74076355 0.75474846 0.7594093
