prototype_1/federated/models/fedmedian_model.pt (torch, 840950 bytes, 21 tensors)

weight f4 [512, 39]
000000 cd b0 12 bc 28 bb 25 3c 67 a4 42 bd 67 16 92 bd
       -0.008953285 0.010115422 -0.047520068 -0.07133179
000010 a6 78 f4 3c ad d0 03 bd 94 c3 e6 3c 2e fa 4b 3d
       0.029842686 -0.03218143 0.02816943 0.049799137
000020 f6 37 46 bd 1a 69 0e 3d 7d eb 27 bd dd 08 09 be
       -0.048393212 0.0347682 -0.040996064 -0.13382287
000030 12 f7 fc bc a8 36 8f 3c 7a f8 24 3d 26 25 9a 3c
       -0.030879531 0.017482117 0.04027603 0.018816542
000040 f2 88 00 bd 38 32 11 bd 8f 37 03 bd 47 fb f6 ba
       -0.0313806 -0.035448283 -0.032035407 -0.0018843197
000050 fe bb 7c 3d 6a cc 8d 3d c2 f7 46 3d 58 77 c2 3c
       0.06170272 0.069237545 0.048576124 0.023738548
000060 c7 dd 82 bc d9 7b ae bc a5 00 26 bd 2d 6c 9f 3c
       -0.015974892 -0.02129929 -0.04052796 0.019460762
000070 f8 21 09 3d 1c 89 ba 3c da 90 0a bb f8 b3 10 3d
       0.03347966 0.022770457 -0.0021143467 0.03532788
000080 8a b6 b2 bd c2 0a c7 3c 83 2f 6b bd 14 0f bc 3c
       -0.08726223 0.024297122 -0.057418358 0.022956409
000090 52 e5 98 3d a1 ea 61 3b f2 65 53 bd 9e 2f 43 bd
       0.074656144 0.0034472125 -0.051610895 -0.047652833
0000a0 16 7d 98 bc a9 17 4b 3c eb 4e f5 3c 92 3f 4b 3d
       -0.018614333 0.012395778 0.029944858 0.049621172
0000b0 ff fb 99 3d 5f d9 66 3d 4c aa 58 3d ad 78 81 bd
       0.075187676 0.056359645 0.052896783 -0.06321845
0000c0 28 be e2 3b 4f 19 29 bd 5c bd 85 3d 0a 61 5a 3d
       0.006919641 -0.0412839 0.06530258 0.0533152
0000d0 b9 80 ae 3d 4b f2 57 bd 53 08 21 3d 75 eb 79 3d
       0.08520646 -0.052721303 0.03931458 0.061015565
0000e0 ac 2d a4 3d a7 fd ab bd 43 a3 a8 bd 06 3f a0 3c
       0.08016524 -0.0839799 -0.08234265 0.019561302
0000f0 ab 26 16 bc b7 b5 33 bd 27 50 65 3d f0 10 a4 3d
       -0.009164493 -0.04387447 0.055984642 0.08011043
000100 21 a9 ed bc 7f 10 77 3d e7 e0 4b 3d 7a 5f 29 3d
       -0.029011311 0.060318466 0.04977503 0.04135082
000110 e7 31 bf 3d 99 c2 56 3d 69 82 1e bd 10 54 20 bd
       0.0933569 0.052431677 -0.038698588 -0.03914267
000120 de e0 35 3c 20 e8 ef bc b0 af 03 3d 61 c2 2b bc
       0.011100976 -0.02928549 0.03214997 -0.010483355
000130 21 9d 8f 3d 02 b9 bf bc 5c f3 3e bd 37 aa 0b bb
       0.07012392 -0.023403648 -0.046618804 -0.0021311173
000140 93 8f 69 bd e2 51 0f 3e 09 32 b2 3c 34 1c 90 3c
       -0.05702169 0.1399608 0.021752374 0.017591573
000150 06 04 75 bd 9f 01 37 3d 87 c1 ba 3d d3 ce 03 3a
       -0.05981829 0.04467928 0.09118944 0.00050280726
000160 e9 39 f2 bc 20 12 51 3d 4f 56 10 3d 94 2e 17 bd
       -0.02956863 0.051042676 0.03523856 -0.036909655
000170 b1 79 2b 3d ee 4a a8 3d 5a b7 5b bd d8 72 3a bd
       0.0418641 0.08217417 -0.053641655 -0.04551968
000180 33 95 85 3d 97 c1 8b bd d8 78 2e bc 07 2a 14 3d
       0.06522598 -0.06824034 -0.010648929 0.036172893
000190 4c 3c 86 3d 0f 08 78 bd 4c b1 84 3a ac a3 dd 3c
       0.065544695 -0.06055456 0.0010123639 0.027055584
0001a0 3a 49 c1 bb d5 4b 7a bd 1e 5e 5f bd 10 2b 53 bd
       -0.005898622 -0.061107475 -0.054533117 -0.05155474
0001b0 a6 ac 08 bd 2b 46 a8 bd 9d 13 b1 bb c4 72 7c 3d
       -0.033367775 -0.082165085 -0.0054039494 0.061632887
0001c0 8e 1d be bc f7 77 cc 3c 34 39 1e bd 41 ee b0 3c
       -0.023207452 0.024959547 -0.038628772 0.021597983
0001d0 a5 46 54 3b 71 60 82 3d 52 27 84 bd 09 aa 7f bc
       0.003239074 0.06366051 -0.06452812 -0.015604504
0001e0 94 07 53 bb 2d 33 d6 bc 9a d6 97 bd ea ad 92 3b
       -0.0032200562 -0.02614745 -0.07413979 0.0044762986
0001f0 ff 38 19 bd 7f 2a 55 3d 4c 92 bb 3c 24 49 6e bd
       -0.03740787 0.05204248 0.022896908 -0.05817522
000200 d5 d1 10 3d 2c 3e f1 3c e3 b6 6d bd 33 6e 63 bc
       0.03535636 0.029448591 -0.058035742 -0.013881254
000210 93 90 ec 3c 86 78 8c 3a 07 fc dc 3d f9 80 0f 3d
       0.028877532 0.0010717071 0.10790258 0.035035107
000220 b5 58 43 bd f5 63 40 3d 72 3e 04 bd 19 11 89 bd
       -0.04769202 0.046970326 -0.032286115 -0.06692714
000230 42 ee 8b bb 5b 3d 51 bd b0 3e da bd bf dd b7 3d
       -0.004270346 -0.051083904 -0.10656488 0.089778416
000240 0a f0 16 bc 7e 50 8c bd 83 d9 2e bc dd 9d e8 bb
       -0.009212503 -0.0685129 -0.010671976 -0.007098897
000250 5d a7 1d bd 61 af 88 bd 4e f8 40 bb 0b 0f 06 bd
       -0.03848969 -0.06674076 -0.0029444876 -0.03272919
000260 4a 90 5c 3c 6e 60 df 3c cf db c4 bd 88 f7 5f 3d
       0.013462136 0.027267661 -0.09612238 0.054679424
000270 f1 9a 37 3d 74 5a 6c bd 16 6b 86 bd 2a 33 8b 3d
       0.044825498 -0.05770345 -0.06563394 0.06796868
000280 32 50 81 bc eb 21 0a 3d 29 cd ce bc 60 b1 1c bd
       -0.01578531 0.033723753 -0.025244312 -0.038255095
000290 01 ba 56 3d e3 58 90 3b c3 e1 a5 bd dd 76 f4 bc
       0.05242348 0.0044051274 -0.08099701 -0.029841835
0002a0 67 d9 c6 bc 39 f5 4b 3d a5 78 29 3d 49 4c 85 3d
       -0.024273587 0.04979441 0.04137482 0.06508691
0002b0 99 a1 96 3d 43 f2 4f 3d b5 40 1c bc 61 2e b9 3c
       0.07355041 0.05076815 -0.009536912 0.022605123
0002c0 89 e3 90 3d 9a df 18 3d 2e 0d b3 3d cd 9a 5c bd
       0.07074649 0.037322618 0.08742748 -0.053858567
0002d0 81 bc a1 bd 50 0f 71 bd fa b8 41 3c 08 6f cc bd
       -0.078972824 -0.058852494 0.011823887 -0.09982115
0002e0 4d 39 ea 3d 58 f5 b9 3d 04 87 84 bd 04 51 50 3c
       0.114367105 0.09079999 -0.06471065 0.012714628
0002f0 54 4a 7e bc 89 99 7e bd 8e 04 a5 3d 87 5a 6a 3c
       -0.015520651 -0.06215814 0.08057509 0.01430381
000300 e5 c5 84 bc d8 0c 20 bd 9e c1 3f bd 40 5f 65 3d
       -0.016207645 -0.03907475 -0.046815507 0.05599904
000310 21 23 92 3d 09 b8 ba bd c9 83 d3 bd 5b 94 5b 3d
       0.071356066 -0.09117133 -0.103278704 0.05360828
000320 7a 0a 37 3a 7d 6e 88 3d 56 92 9f bd e2 14 dd 3c
       0.0006982457 0.06661699 -0.07791583 0.026987497
000330 d4 e4 24 3d 38 bd 26 bd cf 92 9c bd 00 a6 61 3d
       0.04025729 -0.040707797 -0.07645189 0.05508995
000340 2a 8c 51 3d 34 69 e7 bc 09 23 ca bb 67 60 22 3c
       0.05115906 -0.028248407 -0.0061687273 0.009910679
000350 5d 33 a2 bd 00 ec 20 bd a7 b0 92 bd 09 49 fb bd
       -0.07919953 -0.039287567 -0.071626 -0.1226979
000360 9f ad e2 bc f4 cc 35 bd c9 48 81 bd 21 19 39 3c
       -0.02767068 -0.04438491 -0.06312711 0.011297495
000370 0c 24 cb bc 6d 6d 2d bc 5d 96 c1 3d 7b f2 b0 bd
       -0.024797462 -0.010585171 0.09452508 -0.086399995
000380 98 f2 84 3c d7 80 6c 3d c5 9c 3f 3d ef 44 81 3d
       0.016228959 0.05774006 0.046780366 0.06311976
000390 e7 db 21 3d 3d 8a e9 3c 77 af a0 3d a7 79 1a bd
       0.039516356 0.0285083 0.07845967 -0.037713673
0003a0 12 69 82 bd ad 35 85 3c 55 8f 06 3d 43 4a 29 3d
       -0.06367697 0.016260946 0.032851536 0.041330587
0003b0 30 e8 e6 bc 4e e7 b2 3d 6e 5a 50 3c 4c 82 69 3d
       -0.028186888 0.08735524 0.012716873 0.057009026
0003c0 a7 05 7c bd 91 f1 f6 3b 2e 83 34 3d 73 78 27 bb
       -0.061528828 0.007536121 0.044070415 -0.002555397
0003d0 77 93 2e bd 69 1f 1d 3d 7f 35 2a 3a 71 da 12 3d
       -0.042621102 0.038360033 0.0006492957 0.035852853
0003e0 1a 85 a7 3d 28 81 84 3d ac e3 b9 3c 9f c6 b5 bc
       0.08179684 0.06469947 0.02269157 -0.022189436
0003f0 53 40 a8 bd 22 fd e5 bc 59 68 8e bd 92 13 0b 3d
       -0.08215394 -0.028074805 -0.069534965 0.03395421

bias f4 [512]
000000 44 51 b6 3b 4b 72 30 3b f0 62 87 3b e3 9a 4d 3b
       0.005563887 0.0026923593 0.0041316673 0.0031372837
000010 77 57 af 3b 44 db 64 bb 6f 9f 52 39 12 85 e1 3b
       0.005351003 -0.0034920732 0.00020086554 0.0068823183
000020 f0 dc 17 3b 31 1b de ba a3 06 4d 3c c7 c9 6b 3b
       0.002317246 -0.001694536 0.012513789 0.0035978423
000030 de b3 5f 3b 5a 80 83 3b 40 85 03 bc 0f f9 cb bb
       0.0034134309 0.0040131034 -0.008027375 -0.0062247585
000040 c1 ca 50 bb a2 40 75 bb ba 2e 7f 3b 53 58 fc 3a
       -0.0031859132 -0.0037422557 0.0038937763 0.0019252397
000050 d8 83 41 ba b7 25 07 3c 1b 7a 3a 3c ea 52 d2 3b
       -0.0007382012 0.008248738 0.011381651 0.0064185755
000060 c2 8f f6 b9 ee 26 87 3a 3c d8 63 bb 3d 80 5d ba
       -0.00047027884 0.0010311285 -0.0034766337 -0.000844959
000070 c6 1b 20 3c b7 a8 75 3b 79 b2 bd 3c 25 54 05 3c
       0.009772247 0.0037484595 0.023156391 0.008137737
000080 0b 25 d1 3b 61 c2 cc 3b a7 a3 01 3c da 89 40 ba
       0.0063825897 0.0062487577 0.007912553 -0.000734476
000090 31 8f 8d 3a d9 ae ca ba 71 29 0d bb 55 53 23 37
       0.0010800121 -0.0015463486 -0.0021539594 9.734959e-06
0000a0 66 3d e2 3b dc 77 aa bb f6 42 7d 39 6d 53 2f 3c
       0.006904292 -0.0052022766 0.00024152905 0.010701043
0000b0 53 e8 0a ba e3 f5 a5 3b f0 aa 84 3b 29 25 f8 3b
       -0.0005298901 0.0050647124 0.0040486977 0.007572789
0000c0 e9 73 4c 3c f5 5b 39 3b 34 59 f1 3a 0c 08 8e 3b
       0.012478807 0.002828357 0.0018413425 0.0043344554
0000d0 5c e1 81 3a ce 07 79 3a 34 92 15 3c bd b4 1a 3c
       0.0009909081 0.0009499759 0.009129096 0.009442505
0000e0 1f 75 4a 3c 38 a9 20 3c 79 31 fe 3b 72 ff 5e 3c
       0.012357025 0.00980597 0.0077573624 0.013610708
0000f0 11 bf 83 3c 0d 95 c7 3a 40 e6 56 bb 41 d1 ce 3b
       0.016082318 0.0015226916 -0.0032791048 0.006311566
000100 cf c5 d1 3b f2 d4 15 3c f7 dd e9 3b 57 42 eb 3b
       0.0064017545 0.009145008 0.007137056 0.007179539
000110 7e 8a 32 bb d3 c1 77 3b 9c a1 d4 ba a9 76 c1 3b
       -0.0027243192 0.0037804737 -0.001622248 0.005904038
000120 cf b0 3a ba 15 39 1d 3c 2f 34 55 3b 94 38 2f ba
       -0.00071216834 0.009596129 0.0032532325 -0.0006684151
000130 04 41 0b 3b ff 38 44 3b 30 d4 5b 3b 2d e4 57 3b
       0.002124847 0.00299412 0.0033543222 0.00329424
000140 b1 49 08 bc 81 76 02 3d 12 ea 07 bb a1 dc c7 3c
       -0.008318351 0.031851295 -0.0020738882 0.024397196
000150 e8 b2 26 bb a6 ee 0e 3c 5d 9b a4 ba 9a 27 0b 3b
       -0.0025436226 0.00872389 -0.0012558509 0.0021233321
000160 e5 28 0c bc 9f 58 22 3c 4c a1 80 39 f1 d6 51 3c
       -0.008554672 0.009908824 0.00024534238 0.012807594
000170 25 91 1d 3b 85 8e 15 3c 37 17 35 3a f9 5a 32 3b
       0.0024042812 0.009128218 0.00069080613 0.0027214868
000180 aa 68 0e bb 04 66 98 b8 d8 d2 3e 3b c2 f3 cc 3a
       -0.0021729865 -7.266927e-05 0.0029117372 0.001563661
000190 8e bb 1e 3c 36 af 8b 3b af 5b ed ba 4c 0f 0e 3c
       0.009688271 0.00426283 -0.0018108989 0.008670639
0001a0 94 68 08 3c df 5a 89 ba a0 0a 16 3b 3a aa 16 bb
       0.008325715 -0.0010479352 0.0022894517 -0.0022989647
0001b0 f2 51 5a 3c 29 a8 76 3b e2 33 0c 3b e9 16 19 3b
       0.013325201 0.0037636852 0.002139323 0.0023359603
0001c0 92 bd 18 3b 53 10 f1 3b 26 f4 40 ba 0b 4c ee 3b
       0.0023306352 0.0073566823 -0.00073605997 0.0072722486
0001d0 ba 14 95 3b ac 4b d4 ba 58 e5 6c bc 0a f0 92 39
       0.00454959 -0.0016196868 -0.014458977 0.00028026133
0001e0 99 6f 62 3c f7 e9 c1 ba 63 27 92 ba 7c c0 d6 3a
       0.013820552 -0.0014794458 -0.0011150654 0.0016384269
0001f0 a5 7c 67 3b dd 8e 24 3c e9 d7 af 3a c5 8c 62 3b
       0.0035322097 0.010043827 0.0013415787 0.0034568768
000200 38 2c b9 3b 99 b6 46 3a 6b 99 0e 3a 84 29 10 3c
       0.0056510232 0.000758031 0.0005439731 0.008798961
000210 ff 67 f4 ba 8b ac 52 3b 9f cb 99 ba 65 ee 8c 3b
       -0.0018646716 0.00321463 -0.0011733657 0.00430088
000220 95 fe 89 bb e6 fe 03 3b f2 58 e3 3b 81 78 ae bb
       -0.0042112567 0.0020140945 0.0069380933 -0.005324424
000230 45 be 46 3c 13 6c 5e 3c 7e 72 2b 39 48 47 49 3a
       0.012130325 0.013575572 0.00016350482 0.0007678163
000240 92 d2 26 3c 21 7a c5 3b e0 be 18 3c ab b0 0b 3c
       0.01018204 0.006026522 0.009322852 0.008526008
000250 81 3f 88 3c 7c 29 3b 3c c8 4f 15 3b e3 90 d1 38
       0.016631844 0.011423465 0.002278315 9.992884e-05
000260 32 aa 53 bb 72 66 02 bc ef ba 08 b9 9e 9b 94 3b
       -0.003229749 -0.007958995 -0.00013039609 0.0045351526
000270 ce ed ad bb c0 b4 fe 3b 44 f1 1e 3c 39 8f 39 3c
       -0.0053078895 0.007773012 0.009701077 0.011325651
000280 92 3a 4d 3c 97 22 9d 3b 63 08 1d 3c c8 2a 29 3b
       0.012526171 0.004795383 0.009584519 0.0025812853
000290 7c 83 1b 3c e8 9c f8 ba 12 53 6b bb 36 f8 5d 3c
       0.009491798 -0.001896766 -0.0035907668 0.013547948
0002a0 a8 a8 17 3b 63 f3 36 b8 d6 18 b4 bb 84 b6 9c 3b
       0.0023141298 -4.3618853e-05 -0.0054961247 0.0047824997
0002b0 69 d0 8f 3b 25 37 51 3b d8 8e 3a bc 4c 56 a7 bb
       0.004388858 0.0031923738 -0.011386596 -0.005106723
0002c0 47 8f 71 3b 04 8c 98 bb 01 7c 48 3c 37 1d 29 3c
       0.0036859082 -0.004655363 0.012236596 0.010321907
0002d0 c4 e4 7c 3c 85 a1 72 3c 42 d2 0e 3b 7b ee bf ba
       0.015435401 0.014809017 0.0021792804 -0.0014643216
0002e0 3e d5 5f 3b 21 2e 2d 3b 07 d1 19 3b 60 6b db ba
       0.0034154202 0.00264252 0.0023470537 -0.0016740374
0002f0 c1 b3 53 3b 79 8a 2d 3a b9 c4 11 3c b7 0e 86 3b
       0.0032303187 0.00066200603 0.008897 0.0040911096
000300 fc a3 2c 3c 91 f9 33 3c 74 cb d7 3b 93 21 a9 3b
       0.010537144 0.010984794 0.006585533 0.005161473
000310 29 8f 4d 3c 7e 95 b4 3b cb f0 5e 3b bd 13 6a 3b
       0.012546339 0.005510985 0.0034018036 0.0035717331
000320 50 48 39 3c 1b 75 ac 3a 8e 5a 89 bb 7c 76 be 3b
       0.011308745 0.0013157459 -0.004191703 0.0058124643
000330 eb b9 0c bc 57 9f 2b bc 5f 30 00 3c d6 4c 82 3b
       -0.008589248 -0.010475001 0.007824033 0.0039764447
000340 fa e6 b7 3b 82 62 78 3b bf b0 b2 bb 19 a4 aa 3b
       0.0056122513 0.0037900512 -0.0054531987 0.0052075502
000350 d0 b3 5e bb 14 1f 15 3c be 60 bc 3b d6 d5 ec 39
       -0.0033981688 0.009101648 0.0057488373 0.00045172748
000360 0c a0 11 ba 16 03 0d bb 0b 5a 88 3b 4c 2e e7 3b
       -0.000555516 -0.0021516732 0.0041611246 0.0070550796
000370 5e c4 4b 3a 01 07 40 3c c2 79 7f 3b 77 64 44 3c
       0.00077730964 0.01172042 0.0038982485 0.011986843
000380 e9 2b 64 3a b0 31 86 3b 5c 0a d2 3b 97 16 4e 3c
       0.0008704053 0.0040952787 0.0064099263 0.012578628
000390 db b8 29 3c 0c 1c 3e 3b 49 ef 4d ba ec f7 c0 3b
       0.010359014 0.0029008416 -0.00078557857 0.0058889296
0003a0 a1 b0 8b bb 19 2b 13 bc 36 b4 e2 ba 29 6f a1 3b
       -0.004262999 -0.008982443 -0.0017296139 0.0049265814
0003b0 77 44 60 3c 11 48 8f 3c 23 6d 31 3c 48 08 bd 3b
       0.013688198 0.017490419 0.010829243 0.0057688095
0003c0 cc da 28 3b 60 50 56 ba 9e 17 83 3b ca 19 15 3c
       0.0025765179 -0.0008175429 0.004000618 0.009100387
0003d0 29 86 a8 3b e5 1f be 3b 84 14 38 3b a5 a7 a9 3b
       0.0051429463 0.005802142 0.00280884 0.0051774555
0003e0 0c 19 68 3b 51 50 93 3b 43 71 28 3c 79 02 65 3b
       0.003541532 0.0044956584 0.01028091 0.00349441
0003f0 5d a7 33 3c 25 56 ab 3b 90 06 10 3b 89 75 6e 3a
       0.0109651955 0.005228775 0.0021976568 0.00090964936

weight f4 [512]
000000 6d 6d 47 3f 28 49 43 3f 7e 2e 49 3f 62 b7 46 3f
       0.77901345 0.762835 0.78586566 0.7762357
000010 38 d4 3e 3f e8 33 40 3f ac 9f 40 3f 3b 98 40 3f
       0.7454257 0.750792 0.7524364 0.75232285
000020 94 68 44 3f ef 26 40 3f 32 a1 3b 3f 0d b8 42 3f
       0.76722074 0.7505941 0.7329284 0.7606209
000030 37 38 43 3f f7 00 3f 3f 43 ec 41 3f e1 b5 3a 3f
       0.7625765 0.7461085 0.7575113 0.72933775
000040 16 f6 3e 3f 94 91 3b 3f f3 33 4d 3f 2e 85 3a 3f
       0.7459425 0.7326901 0.80157393 0.72859466
000050 21 e5 40 3f 0b a7 3d 3f 78 0d 42 3f fa 99 3a 3f
       0.7534962 0.7408301 0.758018 0.728912
000060 d0 ed 40 3f b3 5e 3b 3f 30 be 3e 3f 74 7c 40 3f
       0.75362873 0.73191375 0.74508953 0.751899
000070 64 34 45 3f 43 d4 3d 3f 67 c0 49 3f 4d 61 40 3f
       0.77033067 0.7415201 0.7880921 0.7514847
000080 fd 6a 42 3f 85 82 3d 3f 3b 2b 45 3f 84 a5 39 3f
       0.759445 0.7402728 0.7701909 0.7251818
000090 7e e8 44 3f 83 33 3d 3f f7 5c 46 3f 6d b7 3c 3f
       0.76917255 0.73906726 0.77485603 0.73717386
0000a0 32 69 46 3f 53 d9 41 3f c6 f7 3f 3f 58 51 3a 3f
       0.77504265 0.75722235 0.7498745 0.7278037
0000b0 4f 08 3b 3f f4 f8 44 3f d0 5d 41 3f bc da 38 3f
       0.7305955 0.7694237 0.7553377 0.7220876
0000c0 ff e9 44 3f c4 fd 48 3f 6c 45 3e 3f e5 3a 45 3f
       0.7691955 0.78512216 0.7432468 0.7704299
0000d0 57 d0 43 3f c3 c1 3a 3f 01 72 47 3f a2 d5 41 3f
       0.76489776 0.72951907 0.7790833 0.757166
0000e0 b7 e9 43 3f 1a 42 45 3f 6f 6c 45 3f 4c fd 37 3f
       0.76528496 0.7705399 0.7711858 0.71870875
0000f0 a2 fc 41 3f aa e9 3a 3f 82 19 51 3f b5 da 3a 3f
       0.7577611 0.73012793 0.81679547 0.7298997
000100 62 b9 45 3f 37 d6 45 3f 61 32 4a 3f 19 a5 40 3f
       0.77235997 0.7727999 0.7898312 0.7525192
000110 a9 68 40 3f 59 01 39 3f 67 18 3f 3f f9 ed 4f 3f
       0.751597 0.7226768 0.7464661 0.8122249
000120 d0 3d 4b 3f ae 17 4e 3f 87 7d 44 3f ab 8c 39 3f
       0.79391193 0.8050488 0.7675404 0.7248027
000130 e0 94 3c 3f 4c fc 3b 3f 60 4e 3a 3f 2f e3 3c 3f
       0.73664665 0.7343185 0.7277584 0.73784155
000140 44 27 3d 3f 05 00 42 3f 6e 7f 3b 3f 85 e9 46 3f
       0.7388804 0.7578128 0.7324132 0.7770007
000150 2b 4c 3a 3f 15 94 41 3f 32 03 4d 3f f4 2d 3d 3f
       0.72772473 0.7561658 0.80083 0.73898244
000160 fa 01 49 3f ce 6c 40 3f 48 60 42 3f e4 cc 3b 3f
       0.7851864 0.7516602 0.75928164 0.73359513
000170 37 f1 3d 3f 54 ae 43 3f 1e ba 3b 3f d1 db 3e 3f
       0.7419619 0.7643788 0.7333087 0.74554163
000180 2b 2e 3c 3f 70 22 40 3f 84 35 40 3f 80 31 4f 3f
       0.73507947 0.7505255 0.7508166 0.80934906
000190 d1 29 41 3f a6 99 42 3f bf 4b 4a 3f 55 38 3b 3f
       0.7545443 0.760157 0.7902183 0.7313283
0001a0 f3 fd 47 3f bf 0f 47 3f 20 b0 47 3f 97 f6 3e 3f
       0.7812187 0.777584 0.7800312 0.74595016
0001b0 ea b0 41 3f 21 da 41 3f 87 e0 3c 3f eb 2b 3a 3f
       0.75660574 0.75723463 0.737801 0.72723264
0001c0 59 45 3f 3f 12 cc 3c 3f 11 1e 40 3f 75 77 43 3f
       0.7471519 0.73748887 0.7504588 0.7635415
0001d0 26 c0 3b 3f 5a f5 3f 3f f9 17 3b 3f fd 98 3f 3f
       0.7334007 0.7498375 0.73083454 0.74842817
0001e0 51 b5 39 3f 7f 2b 3d 3f 44 e4 3b 3f 96 ba 3c 3f
       0.7254229 0.73894495 0.7339518 0.7372221
0001f0 30 9d 3f 3f 10 56 40 3f ed 5f 41 3f 82 4b 40 3f
       0.74849224 0.7513132 0.75536996 0.75115216
000200 9c bd 3c 3f 3f d8 52 3f 3b f3 3e 3f f1 da 3c 3f
       0.7372682 0.82361215 0.7458989 0.7377158
000210 22 a2 46 3f d8 0e 40 3f d2 25 42 3f a3 b4 54 3f
       0.77591145 0.7502265 0.7583896 0.8308813
000220 f5 71 3b 3f 82 19 4c 3f 18 fe 43 3f 3a a6 40 3f
       0.7322076 0.7972642 0.7655959 0.7525364
000230 19 3a 3d 3f a3 b4 3a 3f c6 47 3c 3f ae 70 44 3f
       0.73916775 0.7293188 0.7354702 0.76734436
000240 fb 42 42 3f 0d d0 45 3f bf 9b 3f 3f 80 28 3e 3f
       0.75883454 0.77270585 0.74847025 0.7428055
000250 71 fe 3d 3f b6 a1 46 3f 1a d5 3e 3f a1 4f 3a 3f
       0.7421637 0.775905 0.7454392 0.72777754
000260 b4 fc 3a 3f cd 10 3c 3f 54 aa 4c 3f c2 eb 3e 3f
       0.73041844 0.73463136 0.799474 0.7457849
000270 35 8f 46 3f 8c 0b 41 3f 05 4a 4a 3f 51 58 45 3f
       0.77562267 0.75408244 0.79019195 0.77087885
000280 81 d7 46 3f e7 94 3d 3f b9 d2 43 3f 80 fc 42 3f
       0.7767258 0.7405533 0.7649341 0.76166534
000290 37 51 4b 3f c0 75 41 3f e9 72 3a 3f aa 56 3e 3f
       0.794208 0.755703 0.7283159 0.7435099
0002a0 ee e7 3f 3f cd b1 39 3f 5c 7e 3d 3f 67 11 43 3f
       0.7496327 0.7253693 0.74020934 0.7619843
0002b0 8c 33 47 3f ba 66 3e 3f 94 7d 41 3f 6e bd 3d 3f
       0.7781303 0.743755 0.7558224 0.7411717
0002c0 69 d2 44 3f 1a c7 3b 3f ca 9b 3f 3f 7d 81 4a 3f
       0.7688356 0.7335068 0.7484709 0.79103833
0002d0 c1 5e 3d 3f 0b 3e 3c 3f af ea 48 3f 06 51 41 3f
       0.7397271 0.7353217 0.784831 0.75514257
0002e0 76 a7 42 3f 04 31 42 3f fb 21 3c 3f b0 c2 3b 3f
       0.76036775 0.7585604 0.7348935 0.73343945
0002f0 67 ad 47 3f 6f e6 3d 3f 81 02 3c 3f fb 9e 43 3f
       0.77998966 0.7417974 0.7344132 0.7641446
000300 cc 3e 3c 3f ed 20 44 3f da 67 41 3f e5 17 45 3f
       0.7353332 0.7661274 0.7554909 0.76989585
000310 a6 45 42 3f 6e 29 3d 3f bc d6 41 3f 6b 3f 5b 3f
       0.75887525 0.7389134 0.75718284 0.85643643
000320 f4 2d 43 3f ff 2f 3f 3f c7 47 3b 3f e5 37 3e 3f
       0.76241994 0.7468261 0.731564 0.7430404
000330 2b dd 3a 3f 63 28 47 3f d1 4e 42 3f c4 08 3d 3f
       0.72993726 0.77796 0.75901514 0.738415
000340 77 31 3d 3f 92 77 43 3f c1 01 3c 3f b8 f7 4a 3f
       0.739036 0.76354325 0.73440176 0.7928424
000350 b1 cd 38 3f 3e ef 3e 3f 6e a2 3b 3f f5 06 44 3f
       0.7218886 0.74583805 0.73294723 0.76573116
000360 db fd 4a 3f 62 55 41 3f ee 66 3a 3f ca 5b 3a 3f
       0.792936 0.7552091 0.7281331 0.7279631
000370 e3 a4 3f 3f 7b ed 42 3f 79 39 40 3f 36 2f 43 3f
       0.7486097 0.76143616 0.75087696 0.76243913
000380 49 9b 3d 3f 7c ba 3e 3f b6 aa 3d 3f 00 7a 4c 3f
       0.7406507 0.745033 0.7408861 0.7987366
000390 d6 82 51 3f ae 09 4b 3f 27 7f 3b 3f bb ab 40 3f
       0.81840265 0.79311645 0.73240894 0.7526204
0003a0 73 e0 4b 3f 18 97 46 3f bd 0c 47 3f ff e4 3a 3f
       0.7963936 0.775743 0.7775381 0.7300567
0003b0 10 9d 3d 3f 12 08 43 3f 7a fb 44 3f 2b d1 3f 3f
       0.74067783 0.7618419 0.7694622 0.7492854
0003c0 f1 88 3d 3f 6b 53 3f 3f ff bd 3d 3f a2 12 43 3f
       0.7403708 0.7473666 0.74118036 0.76200306
0003d0 77 40 41 3f b9 8b 3f 3f 47 e3 39 3f 9b ac 45 3f
       0.7548899 0.74822575 0.7261242 0.772165
0003e0 f6 41 59 3f 64 37 3b 3f 01 2c 41 3f 91 40 3c 3f
       0.84866273 0.73131394 0.7545777 0.7353602
0003f0 54 5d 48 3f 4f c6 3d 3f 95 b2 3a 3f ea f0 3c 3f
       0.7826741 0.7413072 0.72928745 0.73805106

bias f4 [512]
000000 08 ba 61 bc 38 c9 b0 3a fd 2b 9b ba 21 f3 8e bb
       -0.013777263 0.0013487702 -0.0011838671 -0.0043624793
000010 5f 3c 88 bb 98 20 c3 bb 62 ae 5f bc 71 80 3b bc
       -0.0041575874 -0.005954813 -0.013652416 -0.011444197
000020 2b 2f 8b bb 1c 51 6d bc 59 2c 3b bc 4f 89 98 bc
       -0.004247566 -0.01448467 -0.0114241475 -0.018620161
000030 31 b2 b8 bb 88 be 46 bc fd 5f 93 ba d2 4e 96 bc
       -0.0056364764 -0.012130387 -0.0011243817 -0.018348131
000040 dc 12 67 bc 41 7b 8c bc 3f d7 83 3c 5c 7d 11 bc
       -0.0141036175 -0.017148616 0.016093848 -0.008879986
000050 e9 59 a5 bb a6 40 60 bc 3f 51 2e bc 6b 67 a4 bc
       -0.0050461185 -0.013687288 -0.010639488 -0.020068845
000060 1f 0b b9 3b b3 38 4c bc ab 6a cd bb a9 91 80 bc
       0.0056470777 -0.01246469 -0.0062688193 -0.015694456
000070 61 ca 82 bc b3 4e 0b bc 75 21 2a 3c 50 41 e7 bb
       -0.015965642 -0.00850265 0.010383953 -0.0070573464
000080 a9 1b 1a bc 9e b2 15 bc 02 80 7d bb a6 5b 5b bc
       -0.009406009 -0.009136824 -0.0038681035 -0.01338855
000090 ce c2 6c 3b 9e 6e 3a bc 54 55 c3 3b 3b 49 77 bb
       0.0036126855 -0.011378912 0.0059610996 -0.0037732858
0000a0 bd 94 8b bc 76 5b 7e bc 00 e8 b7 bb f2 3c a2 bc
       -0.017038697 -0.015524736 -0.0056123734 -0.019804452
0000b0 b0 ba 76 bc 55 25 0c bc c8 a5 e0 bb 06 5d 2c bc
       -0.015059158 -0.0085538225 -0.0068557 -0.010520225
0000c0 ac 26 04 bb 11 84 11 ba 8b ec 9d bc b8 4b 2e bc
       -0.0020164652 -0.00055509905 -0.019277832 -0.01063817
0000d0 ae 98 21 3a ff 48 7a bc be 49 e6 bb a1 49 60 bb
       0.00061644136 -0.015276193 -0.0070278337 -0.0034223574
0000e0 41 b0 e6 ba 75 bc 5c bc 07 f6 57 bc 0e 7b 21 bc
       -0.0017600135 -0.013472666 -0.013181216 -0.009855999
0000f0 bd 78 aa bc 2e 7b 8f bc df c5 48 bc c4 3f af bc
       -0.020809526 -0.017514791 -0.012254207 -0.02139271
000100 5b 48 4a bc 1d 40 3b bc ad a0 ce bb bd cb 66 bc
       -0.012346352 -0.01142886 -0.006305775 -0.014086661
000110 a0 98 95 bc f8 11 92 bc e4 fb a9 bb d0 83 30 bc
       -0.018261254 -0.017830834 -0.0051874984 -0.010773614
000120 c5 37 a1 3a be 38 92 bb c6 2e 82 3b 59 b3 71 bc
       0.0012299946 -0.0044623306 0.003972861 -0.0147522325
000130 77 a5 20 bc b0 32 55 bc 0c 9e 6a bc ce ea cc bb
       -0.009805075 -0.013012573 -0.014319908 -0.006253577
000140 de c9 16 bc d1 74 c2 bc d3 50 b1 bc c5 68 83 bc
       -0.009203402 -0.023737343 -0.021644985 -0.016041169
000150 04 18 b9 bc 88 df 4a bc d5 bf cd 3a ae d2 c9 3a
       -0.02259446 -0.012382396 0.0015697429 0.001539787
000160 ab 25 ab 3b 27 73 c5 bb 8b 91 fc ba b3 41 ab bc
       0.005222996 -0.00602569 -0.0019269449 -0.020905351
000170 37 2e ce bc 70 e4 6c bc c4 fc 7c bc f9 6a b3 bb
       -0.025168521 -0.014458761 -0.015441123 -0.0054753986
000180 ab 5d 7f bc 92 ad d5 bb e2 34 07 bc bf c1 f6 3b
       -0.015586297 -0.0065209353 -0.008252354 0.0075304206
000190 7b 7f 30 bc 0c 86 8c ba 66 b8 84 bb eb bc 8f bc
       -0.010772581 -0.0010721101 -0.0040503023 -0.017546138
0001a0 a5 42 1d bc 7a 45 25 bb ac 0e c4 bb 74 24 5f bc
       -0.009598409 -0.0025218413 -0.0059831943 -0.013619531
0001b0 5d 76 89 bb ff 1e b0 bb e5 2a d9 3a 9b 3c 3b bc
       -0.004195018 -0.005374789 0.001656857 -0.011428024
0001c0 09 17 6a bc 33 24 b9 bb a6 41 de bb c5 51 98 bb
       -0.014287719 -0.0056500672 -0.0067827282 -0.0046484196
0001d0 5e 7c 15 bc 24 aa bb bb 79 72 7c bc a2 6a 38 bc
       -0.00912389 -0.0057270695 -0.015408152 -0.011255892
0001e0 7e 8a c3 bb c9 0e 66 bc 64 53 2b bc 54 1f cf bb
       -0.0059674373 -0.014041611 -0.010456894 -0.0063208733
0001f0 94 26 5e bc 05 84 45 bc bb 66 da bb 6b ec 91 bc
       -0.013559002 -0.012055402 -0.0066650785 -0.017812928
000200 72 8f 71 bb e6 9f 10 bb d6 7b 94 bc 0c 64 ee bb
       -0.0036859182 -0.0022067963 -0.018125456 -0.00727511
000210 24 91 29 bb 27 d5 01 bb a0 90 c4 ba 32 da 90 ba
       -0.0025873864 -0.0019810887 -0.0014996715 -0.0011051355
000220 b3 7f 3d bc 1d a5 2d bc 49 9b 5a ba 0b 52 27 bc
       -0.01156609 -0.010598448 -0.00083391793 -0.010212432
000230 c4 3a 09 bc 04 47 95 bc e7 fc 05 bc cc cf d6 bb
       -0.008375827 -0.01822234 -0.008177972 -0.006555533
000240 54 d8 61 bb 94 70 73 ba 94 41 07 bc 66 ee 99 bc
       -0.0034461217 -0.000928649 -0.008255381 -0.018790435
000250 07 23 a0 bc b1 b7 96 39 24 04 92 bc eb 25 77 bc
       -0.019547952 0.0002874709 -0.01782424 -0.015084724
000260 28 53 90 bc 50 46 9b bc dd 71 72 bb 5a cf e7 3a
       -0.017617777 -0.018954426 -0.0036994137 0.0017685697
000270 05 d1 96 bb 1b 91 1c bc 92 55 08 bb da 40 c4 bb
       -0.004602554 -0.00955608 -0.0020802957 -0.005989176
000280 3f ef db 3a 34 f4 2a bb dc 2e 1b bb 00 59 73 bc
       0.0016779675 -0.0026085498 -0.0023679053 -0.014852762
000290 5a ef f8 3a 42 46 d7 ba 2e 07 7a bc f8 79 eb bb
       0.0018992231 -0.0016424137 -0.015260501 -0.0071861707
0002a0 69 ce 72 bc 41 19 75 bc 4b 7c 1e bb c3 4c c5 ba
       -0.01481972 -0.014959634 -0.002418297 -0.0015052784
0002b0 ce b7 3d bc 5d 0c e8 bb 16 bb 83 bc 14 35 41 bc
       -0.011579467 -0.007081552 -0.01608042 -0.01179244
0002c0 47 27 eb ba c1 39 10 bc 86 00 b8 bb 9f 3b 2b bb
       -0.0017940783 -0.008802832 -0.005615297 -0.0026128066
0002d0 6a 04 b6 bc 24 e1 68 bc 00 3c 30 bc 61 d3 9e bc
       -0.022218902 -0.014213834 -0.010756493 -0.019387903
0002e0 5b f5 3d bc 81 00 96 bc 76 ba 69 bc 9a ba d2 bc
       -0.011594142 -0.018310787 -0.014265647 -0.025723744
0002f0 54 8e 9d bc d4 83 7c bc f6 19 16 bc cf f5 ce b9
       -0.019232906 -0.01541229 -0.009161463 -0.00039474524
000300 96 37 81 bc 56 f0 4b bc a9 60 eb bc 27 32 3c bb
       -0.015773576 -0.012447437 -0.028732615 -0.0028716417
000310 fd ac 66 bb a2 e7 a0 bc 6c 6d a4 bb c1 e4 ed 3b
       -0.0035198324 -0.019641701 -0.005017927 0.0072599356
000320 39 2d 69 ba ed 4e cd bb f7 8c 21 bc ba 64 54 bc
       -0.00088949833 -0.006265512 -0.009860269 -0.012963468
000330 6e 09 a2 bc 3e da e1 bb 41 14 78 bc 65 f8 a9 bc
       -0.019779887 -0.0068924716 -0.015141548 -0.020748327
000340 97 e1 ec ba 9a 49 18 bc f3 9c 30 bc df 2a 0d 3c
       -0.0018072602 -0.009294892 -0.010779607 0.008616178
000350 5b f8 d0 bc 5c 55 30 bc e3 a9 f4 bb 25 9a e2 b8
       -0.02550905 -0.010762539 -0.007466541 -0.000108052314
000360 fe ae 4d bb 2e 46 24 bc 4b 13 4c bc a4 d7 82 bc
       -0.003138482 -0.010026498 -0.012455772 -0.015971966
000370 e8 4b 46 bc 70 08 31 bc 98 f4 78 3b 1b 54 cc 3a
       -0.012103058 -0.010805234 0.0037987586 0.001558903
000380 eb ab 02 bc 6e 22 5e bc 0f 03 86 bc e2 f1 d7 bb
       -0.007975559 -0.013558013 -0.01635888 -0.006590114
000390 23 2c ef ba 25 d6 54 bc 42 4e 89 bc 8b 73 07 bb
       -0.0018247407 -0.012990509 -0.016760949 -0.0020668234
0003a0 9e 6a 1a bc 6a 9f d2 ba cb 9a 92 bb ee 50 14 bc
       -0.009424834 -0.0016069238 -0.004474019 -0.009052498
0003b0 0c 32 20 bb cb 29 a7 3b 34 72 d4 bb 82 eb 11 bc
       -0.0024443893 0.0051014177 -0.0064833406 -0.008906247
0003c0 e9 dc 75 bb ac 23 89 bc e9 a5 8f bb 3c 1d d4 bb
       -0.0037515706 -0.016740642 -0.0043837917 -0.0064732116
0003d0 53 27 05 bc b4 27 e5 bb ea e5 ee bb e6 62 4c bb
       -0.008127051 -0.0069932584 -0.0072905915 -0.0031186878
0003e0 f6 4e 76 3c 80 e4 b8 bb 02 7c 85 bb 8d 77 09 bc
       0.015033474 -0.0056424737 -0.004073621 -0.0083903195
0003f0 ad d1 56 bb 2a d1 65 b9 f4 88 a8 bb c7 89 2e bc
       -0.0032778785 -0.00021917062 -0.005143279 -0.010652966

weight f4 [256, 512]
000000 3f 43 2b bd 92 da 0e 3d 1b 97 7d bd 44 ee 8c bd
       -0.041812178 0.034876414 -0.061911684 -0.06881383
000010 46 b9 62 bd 3c d0 a4 ba c9 3d 68 3c 75 70 9e bd
       -0.05535247 -0.0012574266 0.014174887 -0.07736293
000020 82 16 01 3d 52 4f 03 3d 3b c5 42 bd 94 7a c1 3c
       0.031515606 0.032058068 -0.047551375 0.02361802
000030 65 23 52 bc 9d d4 65 3d 8e 19 ce 3b ff f7 9b bc
       -0.0128258215 0.056110967 0.0062896674 -0.019039152
000040 83 f4 9d 3c 5b 27 2f 3d 6e 45 39 3d e3 50 89 bb
       0.019281631 0.04276214 0.04523223 -0.0041905507
000050 b0 73 a1 3c 91 fe 60 3d e2 be 84 3c 84 20 b0 bc
       0.019708484 0.054930273 0.016204301 -0.02149988
000060 4e 56 7b bd a1 90 74 bb 8f ba 54 39 fa 0e 15 3d
       -0.061361603 -0.003731765 0.00020287394 0.036391236
000070 cb f7 6b 3d 5b 35 c1 3c 9f 5c 1e 3d 19 4b 6f bc
       0.05760936 0.023585012 0.03866255 -0.014605307
000080 ee 2e 6e 3b 42 5a 93 bd 30 c9 2f 3d 50 75 5c bc
       0.003634389 -0.0719495 0.042916477 -0.013455704
000090 41 cb ae bc af d1 47 3d c3 ca 69 bd 93 94 7b bd
       -0.021337153 0.048783954 -0.057078134 -0.06142099
0000a0 76 68 1d bd be 34 5a 3c 56 02 bc 3c 3d 8c 4f bc
       -0.0384297 0.013318239 0.022950333 -0.012667713
0000b0 a4 4d 32 3c 8b 2a b1 bc 36 1c 97 bc 24 89 d7 3a
       0.010882769 -0.021626731 -0.01844607 0.0016444069
0000c0 2b 31 b7 3c ed f6 37 bd 95 b4 a9 3c f1 3e 8b bd
       0.022362312 -0.04491322 0.020715991 -0.067991145
0000d0 17 fb d4 bc 63 a7 3d 3d 3f 0b a8 3c b7 02 2b bd
       -0.025998635 0.04630221 0.020513175 -0.041750636
0000e0 4d bd 88 3c 0a 47 21 3d 4b 55 63 bc c6 70 7e 3c
       0.016691828 0.03937439 -0.013875316 0.015529817
0000f0 99 92 85 3d 78 3b 35 bc 06 84 5b 3d 96 c7 21 3d
       0.06522102 -0.011061542 0.053592704 0.03949698
000100 f3 28 4e 3c 27 b0 0e bb a4 9e c7 3c 48 23 a7 3c
       0.012583005 -0.0021772475 0.024367638 0.020402566
000110 e4 46 ae bc c9 41 71 3d 80 92 0f 3a dc 3f 93 3c
       -0.021274038 0.05890063 0.0005476847 0.017974786
000120 ed 55 95 bd ef 35 3a bd a0 78 92 bd 8c db 06 3c
       -0.0729178 -0.04546159 -0.07151914 0.008231055
000130 50 51 03 bd 42 23 17 3d 5c 4a 6a 3d c8 c0 d7 3c
       -0.032059968 0.03689886 0.05719982 0.026337042
000140 07 99 81 bd 7b e1 73 3d 88 ea dd 3c a0 6d 36 3c
       -0.06328016 0.059541207 0.027089372 0.011134535
000150 60 84 81 bd 9c f1 4c bd 1b 43 8c 3c b0 6d 97 bc
       -0.06324077 -0.050035104 0.017121842 -0.01848492
000160 27 27 4c bd c4 07 1b 3c 28 14 37 bc 09 c4 9e 3c
       -0.049842026 0.009462301 -0.011174239 0.019380586
000170 d0 99 37 bd f0 33 8b bd 86 05 d4 3b d2 e1 06 3d
       -0.04482442 -0.06797016 0.006470385 0.032930203
000180 3f e1 d0 3c c9 ce 93 3c 6e 1d 48 bd f2 53 0d 3d
       0.02549803 0.018042939 -0.04885619 0.034503885
000190 f6 2e d8 bc e7 63 f3 bc 7b 20 05 3d 6b 9e ac 3c
       -0.02638958 -0.029710723 0.03250168 0.021071633
0001a0 08 87 72 3d 11 fe 88 3c 48 9b 64 3c 20 2a 9c 3c
       0.059210807 0.01672271 0.013953038 0.019063056
0001b0 a4 94 cb ba 94 0c 94 bd c6 96 19 3d e3 fe f4 bc
       -0.0015531969 -0.072289616 0.037497304 -0.029906696
0001c0 b9 28 7a bc db fb 70 3d 40 73 67 3c f0 18 97 bc
       -0.015268498 0.058833938 0.014126599 -0.018444508
0001d0 b0 ff 07 3d 5f 42 b6 bc 03 1c 1e bd 19 47 06 3d
       0.033202827 -0.022248445 -0.038600933 0.032782648
0001e0 17 96 d4 bb 40 a1 ad bc f0 ef 19 3d cc a5 43 3d
       -0.0064876187 -0.021195054 0.037582338 0.047765538
0001f0 14 a4 f3 bc 87 7c 09 bd f2 b0 7d bc 23 e2 87 bd
       -0.029741324 -0.033566024 -0.015484082 -0.06634929
000200 55 86 b6 3c a0 dd 25 bc 77 84 3c bd c7 92 85 3c
       0.022280851 -0.01012364 -0.046024766 0.01630534
000210 06 19 52 3d 71 f0 84 bd cb 4a 28 3d 55 af dc bd
       0.051293395 -0.06491173 0.041086953 -0.107756294
000220 04 20 1c 3d 60 20 41 3d 79 aa 5b 3c 4b 54 e1 3c
       0.03811647 0.047150016 0.013407343 0.027506014
000230 ee 0a 11 3c 1d 26 81 3d bb 75 1a 3d 4f 4b 21 3c
       0.0088527035 0.06306098 0.037709933 0.009844615
000240 99 eb 94 3c 6c 42 9c 3c e4 db 56 3d e2 ef c5 3c
       0.018178748 0.019074641 0.052455798 0.024162237
000250 18 63 6e bd ca 19 92 3d 55 de 43 3c f5 9d a1 bc
       -0.058199972 0.07133825 0.011954864 -0.01972864
000260 7c 6c 17 3d de 20 96 3c 64 e4 45 3b 30 e3 9d 3c
       0.036968693 0.01832622 0.0030195946 0.01927337
000270 7a c6 52 3d ed 18 26 3d 67 1b 90 3d a4 c5 e4 bc
       0.051458813 0.040551115 0.070364766 -0.027926274
000280 a4 62 19 bd 22 79 4c bd 23 03 fd 3b 98 e9 9c bd
       -0.037447587 -0.04992021 0.007721321 -0.07661742
000290 b9 2f 02 3d e2 19 1d bd 67 c2 09 bd 3e 68 f6 3c
       0.031783793 -0.038354762 -0.033632662 0.030079003
0002a0 6f a3 9b 3c e8 50 6e 3d fa e2 a9 3c a0 ac 30 3d
       0.01899883 0.058182627 0.020738114 0.043133378
0002b0 56 7c 6a bc 60 eb 43 3d 72 b4 59 bc df 39 c5 3c
       -0.014311871 0.047831893 -0.01328765 0.024075447
0002c0 a7 3a ef bc 32 9b 53 bd e0 36 b1 bd 25 9c be 3b
       -0.029202772 -0.051661678 -0.08653045 0.0058169537
0002d0 a2 3c 3d bd fd 5b 98 bc e6 1a f2 bc 72 04 bd bc
       -0.046200402 -0.01859855 -0.029553842 -0.023073409
0002e0 04 b4 cc bc 4b c2 dd bc 2f 41 25 bd 03 29 ad 3a
       -0.024988182 -0.027070185 -0.040345367 0.0013211075
0002f0 cf 02 37 3d 0f e0 9d bc 1d 00 6c 3c b8 eb 80 bb
       0.044680413 -0.019271879 0.014404324 -0.00393435
000300 25 c5 5f 3d ac b4 8c bd 9c d8 89 3d 39 8b d3 3c
       0.05463137 -0.06870398 0.06730768 0.025823222
000310 b8 4f e3 bb e9 41 5f bd 2b 0b 0e 3d 68 5e e8 3b
       -0.0069369934 -0.054506216 0.03467862 0.007091332
000320 03 1e 17 bd 7e 9b 65 bd ab ff aa b9 34 96 26 3d
       -0.036893856 -0.056056492 -0.00032615414 0.04067059
000330 0c 69 06 3d d3 1d c6 38 5c 46 40 3d 09 c3 ca 3b
       0.032815024 9.446931e-05 0.0469421 0.006187801
000340 d8 9b 67 3c 00 02 82 3d e5 8a 40 3d d5 ad 9b 3c
       0.014136277 0.06348038 0.04700746 0.019003788
000350 0c 7c c1 3c c0 0f 41 bd f8 0a dc bc c6 38 93 3d
       0.02361872 -0.04713416 -0.026860699 0.07188563
000360 ab 59 ed bc 8f 88 16 bd dc 03 2d bd 41 b8 4e 3d
       -0.028973421 -0.036751326 -0.04224001 0.050468687
000370 2a b3 dd bc 5d 49 f9 3b 38 04 5b bd 01 8d 3b 3c
       -0.027062971 0.0076076225 -0.05347082 0.011447192
000380 5d ce 57 3b 36 48 80 3d 61 7a 4b bc db c5 ae 3c
       0.0032929399 0.06263773 -0.012419314 0.02133458
000390 88 2a 9b bd ed ff 04 3b 1a 79 a5 ba e3 e4 ce 3c
       -0.075764716 0.0020294145 -0.0012624592 0.025255626
0003a0 68 f2 10 3c d3 45 bb bb a0 42 60 3b 0d 51 cd 3b
       0.008846857 -0.005715111 0.00342194 0.0062657655
0003b0 aa c8 86 bd fb e1 18 bd fe 7c ca bb 32 7f 3c 3d
       -0.065812424 -0.037324887 -0.006179451 0.04601974
0003c0 e1 83 81 3c b4 0c 02 3d d1 75 82 3a f5 14 81 3d
       0.015809955 0.031750396 0.0009953325 0.06302825
0003d0 7e 9d 0c 3d 9e 9d 85 3c 12 c6 39 3c 16 8a 5f bd
       0.034329884 0.01631051 0.011338728 -0.05457505
0003e0 61 b4 cc 3b 08 47 22 bd aa b8 1f 3d a7 1e 9f 3c
       0.006247089 -0.039618522 0.03899447 0.019423796
0003f0 b0 6a 7f bd 73 b1 0b bd 0f 1b c0 3c e4 d7 e1 3c
       -0.062357605 -0.034104776 0.023450403 0.027568765

bias f4 [256]
000000 7a 45 3a 3b 6d e2 59 3c 49 2f b0 3b 91 7d 23 3b
       0.002842276 0.013298613 0.0053767306 0.002494667
000010 60 cb a6 3a 4a af 4a 3b ab b8 04 3c 03 61 bf 3b
       0.0012725405 0.0030927234 0.008100669 0.005840422
000020 bf 81 d8 3b 3a c3 bc ba 9c cb d2 3b 47 2f 6a 3b
       0.006607264 -0.0014401444 0.0064329635 0.0035733746
000030 1f 41 3d 3b 18 43 7b 3b d3 45 04 3c 6d ff 7b bb
       0.0028877927 0.0038339552 0.008073288 -0.0038451806
000040 63 27 58 3b 59 62 fb 3b 2c 35 1a 3c 21 42 1d ba
       0.003298246 0.007671636 0.009412091 -0.00059989287
000050 fc 6b d8 ba 0c 9b 77 bb 35 ac d4 3b ae 72 42 3b
       -0.0016511674 -0.0037781624 0.0064902552 0.0029670405
000060 42 cc 4c ba 32 8f fb 3a fd 26 f0 3a b7 f7 a3 ba
       -0.0007812419 0.0019192456 0.0018322166 -0.0012509738
000070 c2 bb 90 3a cd 18 ac 3a 66 4e 5b bb 88 88 5f 3a
       0.0011042284 0.001312995 -0.0033463477 0.00085271196
000080 4e 75 89 3b 41 78 34 3b 6b 12 bf 3b 8a 63 fe 3b
       0.004194892 0.0027537497 0.005831053 0.007763331
000090 9a e4 77 3b 96 08 73 3c dc 5d 26 3c 09 df 97 3b
       0.0037825466 0.01483359 0.010154214 0.004634742
0000a0 2f e6 98 3b c9 35 25 3c 38 05 e4 3b 02 dd 4b 3b
       0.004666112 0.010083624 0.00695863 0.0031107073
0000b0 08 1a 99 bb b8 b8 01 bb 2d 0b 7c ba fb 23 ca 3b
       -0.0046722926 -0.001979394 -0.00096147024 0.00616884
0000c0 66 a7 8e b9 60 67 f9 3a 09 9c 40 3b a0 89 25 ba
       -0.00027209072 0.0019028 0.002938988 -0.0006314758
0000d0 34 06 c6 3a 06 78 2a 3b 82 15 f8 b9 1c 11 bf ba
       0.001510805 0.002601148 -0.0004731827 -0.0014577243
0000e0 b0 c6 75 3b 87 14 27 3a f3 b0 c3 3a 1f 93 85 3a
       0.003750246 0.0006373603 0.0014930054 0.001019094
0000f0 3a ed 0b 3b f9 16 59 3b 14 0b b0 3b f9 34 da 39
       0.0021351115 0.0033125265 0.0053724144 0.00041619668
000100 90 2a 1c bb 9b 41 e1 3b 99 b6 e0 3a 11 72 bd 3b
       -0.002382908 0.006874276 0.0017144262 0.00578142
000110 f3 05 b0 3b 02 3a 6f 3a dd d5 a4 3b 48 90 dd 3a
       0.005371803 0.00091257703 0.0050303773 0.0016903961
000120 37 a6 2c 3b 1f f0 b1 3b e4 55 07 3c 76 12 c0 bb
       0.002634419 0.005430236 0.008260224 -0.0058615757
000130 32 c3 82 3b ba fb 97 39 a2 9e 7f 3b 7a 6c 2f ba
       0.0039905543 0.00028988515 0.0039004465 -0.00066918845
000140 5c db ed 39 4b 19 0a 3c 2e 17 92 3b dc ea 75 3a
       0.00045367598 0.008428882 0.0044583296 0.0009381005
000150 60 53 ba 3b 83 98 86 3b 09 7f b6 3a 36 40 e2 3b
       0.0056862086 0.0041075363 0.0013923357 0.006904627
000160 44 4f a4 3b 18 b6 c9 3b 0e c6 9d 3b 7b 3f bf 3a
       0.005014332 0.0061557405 0.0048148697 0.0014591062
000170 2b 12 8e 3a 0e f6 3a 3b d7 20 5b bb 53 c7 11 bb
       0.0010839155 0.0028528008 -0.0033436322 -0.002224405
000180 31 a4 92 ba ca 25 82 ba 2c b5 4e 3b a9 33 3a 3b
       -0.0011187849 -0.0009929475 0.0031541092 0.002841214
000190 2c 93 43 3a 3f 33 56 3b d3 c7 23 bb 47 a4 ac 3b
       0.000746059 0.0032684354 -0.002499093 0.005268607
0001a0 a3 a2 b2 3a d6 3e a5 3b c6 e0 b2 3b b7 27 6f b9
       0.0013628792 0.005042891 0.005458924 -0.00022807611
0001b0 fa 1f 8b ba bc 21 c3 3b 62 11 02 3c 8e 10 05 3b
       -0.0010614388 0.005954949 0.007938715 0.0020304057
0001c0 45 ba 87 3b 2e 68 df 3a f3 5b 2a 3b 6e 0f 92 3a
       0.004142078 0.0017044598 0.0025994747 0.0011143514
0001d0 3c 41 d5 3b 9f db 0d 3c 28 a7 84 3b e1 b0 a9 3a
       0.0065080207 0.008658319 0.004048247 0.0012946391
0001e0 8e 93 6a 3a e0 7f 4d ba ce 0c 96 3b 48 cb 11 3c
       0.0008948379 -0.0007839184 0.004579163 0.008898564
0001f0 07 17 10 bb 73 ed 1f 3b 43 72 92 3a ee 49 54 3a
       -0.0021986382 0.0024403005 0.0011172969 0.00080981746
000200 bd 3d 3a bb 64 92 67 3a f8 3b 97 3b fc ab 24 bb
       -0.0028418147 0.00088337646 0.004615303 -0.0025126925
000210 b2 20 4d 3a d1 47 08 3a 96 a1 3b bb 1f fc 90 3a
       0.00078250014 0.000519869 -0.0028630248 0.0011061466
000220 58 2e 0b bb bd f0 0e b9 0f cf 8f 3b 86 24 81 ba
       -0.002123734 -0.00013631857 0.004388697 -0.0009852804
000230 f2 5f 12 3b 07 94 a7 ba 7d d0 82 3b fb 8b 98 3b
       0.002233502 -0.0012785204 0.003992139 0.004655359
000240 2f 9f 85 bb 58 28 f4 3a b4 66 d8 b9 29 77 82 3b
       -0.004077814 0.0018627746 -0.0004127525 0.00398149
000250 19 e6 e0 ba 53 2c 6c 3b ed ae c5 3b 23 18 33 3b
       -0.0017158418 0.0036037161 0.0060328157 0.002732762
000260 e2 64 31 3b 48 5e 08 3a 8e 94 01 3c 3e bb 4f 3b
       0.0027068187 0.0005202037 0.007908953 0.0031697298
000270 52 90 ad 3b 8c 0a c9 39 32 68 93 39 9e 55 07 ba
       0.0052967453 0.00038345566 0.00028115656 -0.0005162599
000280 33 26 bc 3b 24 27 f2 ba a2 4c b2 3b 5b b2 c5 ba
       0.0057418584 -0.00184748 0.0054412642 -0.0015083061
000290 e0 8c d2 3a 6e a9 3d 3c a0 f2 92 3b b4 09 49 3b
       0.0016063713 0.01157604 0.0044844896 0.003067595
0002a0 d9 aa d2 3a 7f 3b 8f 3b ad 3d 12 3c b2 09 84 3b
       0.0016072645 0.004371106 0.008925837 0.004029476
0002b0 63 6c 5c ba 37 af b8 3b e7 83 45 3b 4b 79 13 3b
       -0.0008408485 0.0056361216 0.0030138434 0.0022502716
0002c0 a6 65 b2 3b 8b e1 a0 3b 68 28 f6 3b 85 b2 9e ba
       0.0054442463 0.0049096993 0.007512141 -0.0012107646
0002d0 53 b3 e1 3b df 5c 41 3a 7d 67 68 3c 26 a3 b3 3b
       0.006887832 0.00073762046 0.01418483 0.0054820953
0002e0 06 61 02 3b 0a fa 9b 3a 41 bd 14 3b b9 c1 60 3b
       0.0019894256 0.0011900079 0.0022695812 0.0034295155
0002f0 9f 38 8b 3a 79 3b 05 3c ba c3 35 3c 81 bd 25 3b
       0.0010621733 0.008131855 0.011094028 0.0025289955
000300 7d 17 10 3b ff 1a 56 3c c1 c9 65 3b 93 3b c4 3b
       0.0021986656 0.01306796 0.0035062882 0.005988547
000310 40 55 ad bb fe 24 b9 3b 25 5f 88 3b e1 05 ae bb
       -0.0052897036 0.0056501618 0.0041617327 -0.0053107594
000320 25 36 88 ba 8c 87 22 bb dc 5c a5 3b 0b af a7 3b
       -0.0010392113 -0.002480003 0.00504647 0.0051173023
000330 c7 07 7c 3b 79 e3 17 3b 67 a9 8e 3b 95 50 1e 3b
       0.0038456784 0.0023176356 0.0043536904 0.0024156917
000340 55 39 dd 3a 7c 38 e0 b8 a4 61 20 3c 60 96 82 3b
       0.0016878048 -0.000106916734 0.009788904 0.0039852113
000350 eb 38 b2 3b c5 0f e0 3a ea bc ee 3a b2 df 86 3a
       0.005438914 0.0017094543 0.001821426 0.0010290055
000360 30 86 7a 3b 8e 1f 7d b8 15 0c 9b 3b 8a f6 d5 ba
       0.0038226955 -6.0349288e-05 0.004731665 -0.0016324085
000370 88 c9 20 bb 7e 09 65 3a 35 41 b9 3a 22 d1 29 3b
       -0.0024534184 0.0008737071 0.0014133813 0.0025912006
000380 1a bb b7 3b 50 d9 df 3a db 99 91 3b 4e 20 d2 3b
       0.005607021 0.0017078314 0.00444339 0.0064125424
000390 1d d8 65 3b 66 a6 74 3b 95 98 ae 3a 0f cb b4 3b
       0.003507144 0.0037330627 0.001332062 0.0055173705
0003a0 18 12 6a 3b 42 cb 8b 3b 0c bc 65 3b f8 3b 7c b9
       0.003571635 0.0042661736 0.0035054712 -0.00024054933
0003b0 67 33 43 3b db d2 44 39 40 af ef 39 60 8d 87 3b
       0.0029785277 0.00018770566 0.00045716204 0.0041367263
0003c0 2c 4b ce 3b c6 d3 1d bb 85 33 ce 3b 3f 2b 80 3b
       0.0062955823 -0.0024082526 0.0062927627 0.0039114053
0003d0 c0 44 f1 3b 5a e2 32 bb 91 23 9c 3b ae b2 f3 3a
       0.007362932 -0.002729556 0.004764982 0.0018592679
0003e0 ab a8 b6 ba d5 22 2a b9 90 23 ce ba 8d dd de 3b
       -0.0013935765 -0.0001622544 -0.0015727151 0.0068013133
0003f0 1f 2b 2d 3b 03 9b 04 3c 82 50 5c 3b 67 15 31 3b
       0.0026423407 0.008093598 0.0033617322 0.0027020813

weight f4 [256]
000000 78 80 3d 3f ad bd 47 3f 4a 80 3f 3f e5 cd 3d 3f
       0.7402415 0.780238 0.7480513 0.74142295
000010 c0 0b 40 3f 7e af 3f 3f 5f f0 40 3f 93 53 3e 3f
       0.7501793 0.74877155 0.7536678 0.74346274
000020 2c 7c 3f 3f 17 b6 40 3f 01 e8 3d 3f fa c6 3d 3f
       0.74798846 0.7527785 0.74182135 0.7413174
000030 30 e3 3c 3f ea 31 3e 3f a2 d7 48 3f f9 c7 3a 3f
       0.7378416 0.7429491 0.7845403 0.72961384
000040 4a a3 40 3f 2b bf 3d 3f b6 da 3d 3f 0c d9 45 3f
       0.7524916 0.74119824 0.7416185 0.7728431
000050 69 bb 3d 3f eb 4f 3f 3f a3 18 39 3f d6 7b 3c 3f
       0.7411409 0.7473132 0.7230322 0.7362646
000060 43 61 3f 3f 5a 20 46 3f 36 d1 40 3f 58 49 3a 3f
       0.74757785 0.77393115 0.7531923 0.72768164
000070 b2 fc 3c 3f 96 9d 38 3f 6f 51 3c 3f 37 3c 41 3f
       0.7382308 0.7211546 0.7356176 0.75482506
000080 4f 99 3c 3f 17 67 3f 3f 6b de 3b 3f 5f cf 45 3f
       0.7367143 0.7476668 0.7338626 0.7726955
000090 28 79 3f 3f c8 68 44 3f d7 9c 41 3f 3a 14 3d 3f
       0.74794245 0.76722383 0.75629944 0.7385899
0000a0 93 54 43 3f ff d1 44 3f 78 02 3c 3f a6 03 3f 3f
       0.76300925 0.7688293 0.73441267 0.7461494
0000b0 06 8d 40 3f 54 05 45 3f aa 9a 3b 3f e6 20 3e 3f
       0.75215185 0.76961255 0.73282874 0.7426895
0000c0 d1 ed 45 3f 2e 60 3d 3f 41 10 3b 3f b2 3b 3e 3f
       0.77316004 0.73974884 0.73071676 0.7430984
0000d0 0a 19 3b 3f 37 39 4a 3f 4c 9c 44 3f 6c 06 3c 3f
       0.7308508 0.7899355 0.7680099 0.734473
0000e0 f8 cb 3e 3f c4 2f 40 3f 2f 29 3f 3f bf d7 3f 3f
       0.7452998 0.75072885 0.74672216 0.7493858
0000f0 be e2 3e 3f b4 29 46 3f d8 da 41 3f ce 53 45 3f
       0.7456473 0.77407384 0.75724554 0.77081
000100 2c 86 41 3f 28 86 3d 3f f4 2d 48 3f 87 75 3e 3f
       0.75595355 0.7403283 0.7819512 0.7439808
000110 e3 c3 3b 3f 5f 81 39 3f fb d2 3c 3f 64 70 3a 3f
       0.73345774 0.7246303 0.7375943 0.72827744
000120 10 72 3d 3f 73 a7 3e 3f 46 ca 40 3f 80 5e 3a 3f
       0.7400217 0.7447426 0.75308645 0.72800446
000130 9f df 3f 3f e4 d0 3d 3f a0 c6 3d 3f 9d 93 3d 3f
       0.74950594 0.74146867 0.741312 0.74053365
000140 e6 1b 3e 3f 9a 72 41 3f 6b ea 3f 3f 40 6b 44 3f
       0.7426132 0.75565493 0.7496707 0.7672615
000150 77 b6 40 3f 08 4d 3a 3f fa ad 4b 3f 7c 77 42 3f
       0.7527842 0.7277379 0.7956234 0.7596357
000160 b8 01 43 3f 98 d3 42 3f 9a a0 3b 3f 2b cc 3e 3f
       0.761745 0.76104116 0.73291934 0.74530286
000170 0f e6 43 3f f0 81 3d 3f 16 0d 3e 3f 21 46 42 3f
       0.76522917 0.74026394 0.7423872 0.7588826
000180 87 bf 3f 3f ad 75 3d 3f 1e c6 3b 3f 58 a7 3d 3f
       0.7490162 0.74007684 0.7334918 0.7408347
000190 fe f7 3c 3f df 3f 3c 3f 70 6e 43 3f 01 26 41 3f
       0.73815906 0.7353496 0.7634039 0.75448614
0001a0 c6 32 43 3f 32 ec 40 3f 40 8f 43 3f 50 18 3e 3f
       0.7624935 0.75360405 0.7639046 0.7425585
0001b0 e3 22 3f 3f 21 9c 40 3f cd db 3f 3f 40 9b 3f 3f
       0.7466261 0.75238234 0.74944764 0.7484627
0001c0 22 21 40 3f 7b ad 3d 3f e4 44 3e 3f 5e a9 3d 3f
       0.75050557 0.74092835 0.7432387 0.7408656
0001d0 51 8f 41 3f 68 e3 3f 3f 41 12 40 3f f2 68 43 3f
       0.7560931 0.7495637 0.75027853 0.7633201
0001e0 02 84 43 3f 7d b1 3d 3f a9 6a 41 3f bf b5 3e 3f
       0.763733 0.7409895 0.75553375 0.7449607
0001f0 dd 5c 40 3f c9 d3 44 3f b7 56 41 3f 16 36 40 3f
       0.751417 0.7688566 0.7552294 0.7508253
000200 0c 70 3b 3f 6d c8 3a 3f e7 4f 3d 3f e3 84 3f 3f
       0.73217845 0.72962075 0.73950046 0.74812144
000210 aa da 3c 3f ec 1a 44 3f 8b f3 41 3f 1c 51 39 3f
       0.73771155 0.7660358 0.7576224 0.7238939
000220 c4 a6 40 3f 81 20 41 3f 4c b9 41 3f 8e 35 3e 3f
       0.75254464 0.7544022 0.75673366 0.7430047
000230 75 b7 39 3f 56 00 3c 3f a8 31 42 3f b9 3b 40 3f
       0.7254556 0.7343801 0.7585702 0.7509113
000240 3a 2c 3b 3f 2e 30 49 3f fb 53 40 3f 06 d5 40 3f
       0.7311436 0.7858914 0.75128144 0.7532505
000250 28 d6 3d 3f 74 4b 42 3f 86 6f 40 3f af 10 3f 3f
       0.741549 0.7589638 0.7517017 0.7463483
000260 98 4b 47 3f 00 13 46 3f a5 a0 42 3f f5 46 3d 3f
       0.7784972 0.7737274 0.76026374 0.73936397
000270 d8 ab 41 3f 91 d9 3e 3f 49 20 3b 3f 2b 97 3e 3f
       0.7565284 0.7455073 0.7309614 0.74449414
000280 38 88 40 3f 5f 1c 3a 3f 8e 84 3b 3f fb 17 4b 3f
       0.75207853 0.7269954 0.7324914 0.79333466
000290 33 49 42 3f 50 eb 45 3f 24 5f 49 3f 53 18 40 3f
       0.75892943 0.77312183 0.786608 0.75037116
0002a0 5d d6 41 3f 15 fd 3c 3f 5c e7 3e 3f e4 23 42 3f
       0.7571772 0.7382367 0.74571776 0.75836015
0002b0 69 ef 3e 3f 5f d1 3e 3f 92 cb 3e 3f 22 47 45 3f
       0.7458406 0.74538225 0.74529374 0.77061665
0002c0 fc 92 45 3f 5c 65 3d 3f 50 1b 3e 3f 3d b4 40 3f
       0.77177405 0.7398279 0.74260426 0.7527502
0002d0 5b 46 3b 3f 96 84 44 3f 48 44 41 3f 1f ed 41 3f
       0.7315423 0.7676481 0.75494814 0.75752443
0002e0 70 4a 3e 3f a2 ac 4c 3f de 67 3d 3f f2 ce 42 3f
       0.7433233 0.79950917 0.73986614 0.76097023
0002f0 e9 11 45 3f 30 30 41 3f e9 f3 46 3f cd 5e 40 3f
       0.76980454 0.75464153 0.7771593 0.75144655
000300 65 12 3e 3f d7 73 3f 3f 4f 4f 3e 3f 6b 89 41 3f
       0.7424682 0.7478613 0.74339765 0.7560031
000310 6c b9 43 3f b7 01 3d 3f 28 30 3f 3f 29 62 3d 3f
       0.76454806 0.7383074 0.74682856 0.73977906
000320 98 93 3b 3f 5c 79 40 3f 3e d9 41 3f 93 16 42 3f
       0.73272085 0.7518518 0.7572211 0.75815696
000330 0a 45 42 3f 0c ea 3d 3f b0 93 3d 3f b8 cc 3e 3f
       0.75886595 0.7418525 0.7405348 0.74531126
000340 48 59 40 3f 09 82 3c 3f b7 82 3c 3f e1 4e 3d 3f
       0.7513623 0.7363592 0.73636955 0.73948485
000350 d1 fa 40 3f 03 b8 42 3f 4a 71 3e 3f 14 5d 3d 3f
       0.75382715 0.7606203 0.74391615 0.7397015
000360 ef f8 3e 3f c3 20 3f 3f 7f 55 40 3f 88 8f 3d 3f
       0.7459859 0.74659365 0.75130457 0.74047136
000370 ab 2e 3e 3f 4c 1c 41 3f 93 76 3c 3f 1e 59 38 3f
       0.7428996 0.754338 0.7361843 0.7201098
000380 15 7f 3f 3f 6b b1 3c 3f 52 ca 3b 3f 3f 9b 44 3f
       0.74803287 0.7370822 0.7335559 0.76799387
000390 8c b0 46 3f d0 95 42 3f 9e 16 3e 3f 29 79 3c 3f
       0.7761314 0.76009846 0.7425326 0.73622376
0003a0 ed d1 3f 3f d3 8d 42 3f 72 13 3c 3f ef ce 3f 3f
       0.74929696 0.75997657 0.7346717 0.7492513
0003b0 69 d6 39 3f f4 d9 3c 3f 81 5f 3f 3f f9 cd 43 3f
       0.7259279 0.7377007 0.747551 0.76486164
0003c0 5c b9 3e 3f 01 39 49 3f 22 7e 3e 3f 79 dc 3f 3f
       0.74501586 0.78602606 0.74411213 0.7494579
0003d0 c4 ee 3b 3f 21 fd 46 3f 8b b2 40 3f 0a 06 3d 3f
       0.734112 0.77729994 0.75272435 0.7383734
0003e0 a5 83 3d 3f c7 e6 3d 3f 65 cc 50 3f ed f9 3e 3f
       0.74029 0.74180263 0.8156188 0.74600106
0003f0 03 39 3e 3f 16 05 3c 3f c2 84 40 3f 90 83 3c 3f
       0.7430574 0.7344526 0.7520257 0.7363825
